{"format": "graph-model", "generatedBy": "2.12.0", "convertedBy": "TensorFlow.js Converter v3.18.0", "signature": {"outputs": {"Identity:0": {"name": "Identity:0"}}}, "modelTopology": {"node": [{"name": "ConstantFolding/PartitionedCall/model_3/tf.math.divide/truediv_recip", "op": "Const", "attr": {"value": {"tensor": {"dtype": "DT_FLOAT", "tensorShape": {"dim": [{"size": "1"}, {"size": "1"}, {"size": "1"}]}}}, "dtype": {"type": "DT_FLOAT"}}}, {"name": "22127", "op": "Const", "attr": {"value": {"tensor": {"dtype": "DT_FLOAT", "tensorShape": {"dim": [{"size": "1"}, {"size": "2"}, {"size": "8400"}]}}}, "dtype": {"type": "DT_FLOAT"}}}, {"name": "22119", "op": "Const", "attr": {"dtype": {"type": "DT_INT64"}, "value": {"tensor": {"dtype": "DT_INT64", "tensorShape": {"dim": [{"size": "3"}]}}}}}, {"name": "22121", "op": "Const", "attr": {"value": {"tensor": {"dtype": "DT_INT64", "tensorShape": {"dim": [{"size": "3"}]}}}, "dtype": {"type": "DT_INT64"}}}, {"name": "PartitionedCall/model_3/tf.strided_slice_19/ones_like", "op": "Const", "attr": {"value": {"tensor": {"dtype": "DT_INT64", "tensorShape": {"dim": [{"size": "3"}]}}}, "dtype": {"type": "DT_INT64"}}}, {"name": "22129", "op": "Const", "attr": {"value": {"tensor": {"dtype": "DT_FLOAT", "tensorShape": {"dim": [{"size": "1"}, {"size": "2"}, {"size": "8400"}]}}}, "dtype": {"type": "DT_FLOAT"}}}, {"name": "22113", "op": "Const", "attr": {"value": {"tensor": {"dtype": "DT_INT64", "tensorShape": {"dim": [{"size": "3"}]}}}, "dtype": {"type": "DT_INT64"}}}, {"name": "22115", "op": "Const", "attr": {"value": {"tensor": {"dtype": "DT_INT64", "tensorShape": {"dim": [{"size": "3"}]}}}, "dtype": {"type": "DT_INT64"}}}, {"name": "PartitionedCall/model_3/tf.strided_slice_16/StridedSlice/strides", "op": "Const", "attr": {"value": {"tensor": {"dtype": "DT_INT64", "tensorShape": {"dim": [{"size": "3"}]}}}, "dtype": {"type": "DT_INT64"}}}, {"name": "PartitionedCall/model_3/tf.reshape_3/Reshape/shape", "op": "Const", "attr": {"value": {"tensor": {"dtype": "DT_INT32", "tensorShape": {"dim": [{"size": "4"}]}}}, "dtype": {"type": "DT_INT32"}}}, {"name": "PartitionedCall/model_3/tf.compat.v1.transpose_1160/transpose/perm", "op": "Const", "attr": {"value": {"tensor": {"dtype": "DT_INT32", "tensorShape": {"dim": [{"size": "4"}]}}}, "dtype": {"type": "DT_INT32"}}}, {"name": "PartitionedCall/model_3/tf.compat.v1.transpose_1161/transpose/perm", "op": "Const", "attr": {"value": {"tensor": {"dtype": "DT_INT32", "tensorShape": {"dim": [{"size": "4"}]}}}, "dtype": {"type": "DT_INT32"}}}, {"name": "22117", "op": "Const", "attr": {"value": {"tensor": {"dtype": "DT_FLOAT", "tensorShape": {"dim": [{"size": "1"}, {"size": "1"}, {"size": "16"}, {"size": "1"}]}}}, "dtype": {"type": "DT_FLOAT"}}}, {"name": "PartitionedCall/model_3/tf.compat.v1.transpose_1164/transpose/perm", "op": "Const", "attr": {"value": {"tensor": {"dtype": "DT_INT32", "tensorShape": {"dim": [{"size": "4"}]}}}, "dtype": {"type": "DT_INT32"}}}, {"name": "PartitionedCall/model_3/tf.reshape_4/Reshape/shape", "op": "Const", "attr": {"dtype": {"type": "DT_INT32"}, "value": {"tensor": {"dtype": "DT_INT32", "tensorShape": {"dim": [{"size": "3"}]}}}}}, {"name": "22123", "op": "Const", "attr": {"value": {"tensor": {"dtype": "DT_INT64", "tensorShape": {"dim": [{"size": "3"}]}}}, "dtype": {"type": "DT_INT64"}}}, {"name": "22125", "op": "Const", "attr": {"dtype": {"type": "DT_INT64"}, "value": {"tensor": {"dtype": "DT_INT64", "tensorShape": {"dim": [{"size": "3"}]}}}}}, {"name": "PartitionedCall/model_3/tf.strided_slice_18/ones_like", "op": "Const", "attr": {"value": {"tensor": {"dtype": "DT_INT64", "tensorShape": {"dim": [{"size": "3"}]}}}, "dtype": {"type": "DT_INT64"}}}, {"name": "PartitionedCall/model_3/tf.concat_594/concat/axis", "op": "Const", "attr": {"value": {"tensor": {"dtype": "DT_INT32", "tensorShape": {}}}, "dtype": {"type": "DT_INT32"}}}, {"name": "PartitionedCall/model_3/tf.math.multiply_195/Mul/y", "op": "Const", "attr": {"value": {"tensor": {"dtype": "DT_FLOAT", "tensorShape": {"dim": [{"size": "1"}, {"size": "1"}, {"size": "8400"}]}}}, "dtype": {"type": "DT_FLOAT"}}}, {"name": "22045", "op": "Const", "attr": {"value": {"tensor": {"dtype": "DT_FLOAT", "tensorShape": {"dim": [{"size": "3"}, {"size": "3"}, {"size": "64"}, {"size": "64"}]}}}, "dtype": {"type": "DT_FLOAT"}}}, {"name": "22055", "op": "Const", "attr": {"dtype": {"type": "DT_FLOAT"}, "value": {"tensor": {"dtype": "DT_FLOAT", "tensorShape": {"dim": [{"size": "64"}]}}}}}, {"name": "22069", "op": "Const", "attr": {"value": {"tensor": {"dtype": "DT_FLOAT", "tensorShape": {"dim": [{"size": "3"}, {"size": "3"}, {"size": "64"}, {"size": "64"}]}}}, "dtype": {"type": "DT_FLOAT"}}}, {"name": "22079", "op": "Const", "attr": {"value": {"tensor": {"dtype": "DT_FLOAT", "tensorShape": {"dim": [{"size": "64"}]}}}, "dtype": {"type": "DT_FLOAT"}}}, {"name": "22091", "op": "Const", "attr": {"dtype": {"type": "DT_FLOAT"}, "value": {"tensor": {"dtype": "DT_FLOAT", "tensorShape": {"dim": [{"size": "1"}, {"size": "1"}, {"size": "64"}, {"size": "64"}]}}}}}, {"name": "22103", "op": "Const", "attr": {"value": {"tensor": {"dtype": "DT_FLOAT", "tensorShape": {"dim": [{"size": "64"}]}}}, "dtype": {"type": "DT_FLOAT"}}}, {"name": "22041", "op": "Const", "attr": {"value": {"tensor": {"dtype": "DT_FLOAT", "tensorShape": {"dim": [{"size": "3"}, {"size": "3"}, {"size": "64"}, {"size": "80"}]}}}, "dtype": {"type": "DT_FLOAT"}}}, {"name": "22043", "op": "Const", "attr": {"dtype": {"type": "DT_FLOAT"}, "value": {"tensor": {"dtype": "DT_FLOAT", "tensorShape": {"dim": [{"size": "80"}]}}}}}, {"name": "22065", "op": "Const", "attr": {"value": {"tensor": {"dtype": "DT_FLOAT", "tensorShape": {"dim": [{"size": "3"}, {"size": "3"}, {"size": "80"}, {"size": "80"}]}}}, "dtype": {"type": "DT_FLOAT"}}}, {"name": "22067", "op": "Const", "attr": {"value": {"tensor": {"dtype": "DT_FLOAT", "tensorShape": {"dim": [{"size": "80"}]}}}, "dtype": {"type": "DT_FLOAT"}}}, {"name": "22089", "op": "Const", "attr": {"value": {"tensor": {"dtype": "DT_FLOAT", "tensorShape": {"dim": [{"size": "1"}, {"size": "1"}, {"size": "80"}, {"size": "80"}]}}}, "dtype": {"type": "DT_FLOAT"}}}, {"name": "22101", "op": "Const", "attr": {"dtype": {"type": "DT_FLOAT"}, "value": {"tensor": {"dtype": "DT_FLOAT", "tensorShape": {"dim": [{"size": "80"}]}}}}}, {"name": "PartitionedCall/model_3/tf.concat_587/concat/axis", "op": "Const", "attr": {"dtype": {"type": "DT_INT32"}, "value": {"tensor": {"dtype": "DT_INT32", "tensorShape": {}}}}}, {"name": "PartitionedCall/model_3/tf.compat.v1.transpose_1156/transpose/perm", "op": "Const", "attr": {"value": {"tensor": {"dtype": "DT_INT32", "tensorShape": {"dim": [{"size": "4"}]}}}, "dtype": {"type": "DT_INT32"}}}, {"name": "PartitionedCall/model_3/tf.reshape/Reshape/shape", "op": "Const", "attr": {"dtype": {"type": "DT_INT32"}, "value": {"tensor": {"dtype": "DT_INT32", "tensorShape": {"dim": [{"size": "3"}]}}}}}, {"name": "22053", "op": "Const", "attr": {"value": {"tensor": {"dtype": "DT_FLOAT", "tensorShape": {"dim": [{"size": "3"}, {"size": "3"}, {"size": "128"}, {"size": "64"}]}}}, "dtype": {"type": "DT_FLOAT"}}}, {"name": "22063", "op": "Const", "attr": {"dtype": {"type": "DT_FLOAT"}, "value": {"tensor": {"dtype": "DT_FLOAT", "tensorShape": {"dim": [{"size": "64"}]}}}}}, {"name": "22077", "op": "Const", "attr": {"value": {"tensor": {"dtype": "DT_FLOAT", "tensorShape": {"dim": [{"size": "3"}, {"size": "3"}, {"size": "64"}, {"size": "64"}]}}}, "dtype": {"type": "DT_FLOAT"}}}, {"name": "22087", "op": "Const", "attr": {"dtype": {"type": "DT_FLOAT"}, "value": {"tensor": {"dtype": "DT_FLOAT", "tensorShape": {"dim": [{"size": "64"}]}}}}}, {"name": "22099", "op": "Const", "attr": {"value": {"tensor": {"dtype": "DT_FLOAT", "tensorShape": {"dim": [{"size": "1"}, {"size": "1"}, {"size": "64"}, {"size": "64"}]}}}, "dtype": {"type": "DT_FLOAT"}}}, {"name": "22109", "op": "Const", "attr": {"value": {"tensor": {"dtype": "DT_FLOAT", "tensorShape": {"dim": [{"size": "64"}]}}}, "dtype": {"type": "DT_FLOAT"}}}, {"name": "22051", "op": "Const", "attr": {"value": {"tensor": {"dtype": "DT_FLOAT", "tensorShape": {"dim": [{"size": "3"}, {"size": "3"}, {"size": "128"}, {"size": "80"}]}}}, "dtype": {"type": "DT_FLOAT"}}}, {"name": "22061", "op": "Const", "attr": {"value": {"tensor": {"dtype": "DT_FLOAT", "tensorShape": {"dim": [{"size": "80"}]}}}, "dtype": {"type": "DT_FLOAT"}}}, {"name": "22075", "op": "Const", "attr": {"dtype": {"type": "DT_FLOAT"}, "value": {"tensor": {"dtype": "DT_FLOAT", "tensorShape": {"dim": [{"size": "3"}, {"size": "3"}, {"size": "80"}, {"size": "80"}]}}}}}, {"name": "22085", "op": "Const", "attr": {"dtype": {"type": "DT_FLOAT"}, "value": {"tensor": {"dtype": "DT_FLOAT", "tensorShape": {"dim": [{"size": "80"}]}}}}}, {"name": "22097", "op": "Const", "attr": {"dtype": {"type": "DT_FLOAT"}, "value": {"tensor": {"dtype": "DT_FLOAT", "tensorShape": {"dim": [{"size": "1"}, {"size": "1"}, {"size": "80"}, {"size": "80"}]}}}}}, {"name": "22111", "op": "Const", "attr": {"value": {"tensor": {"dtype": "DT_FLOAT", "tensorShape": {"dim": [{"size": "80"}]}}}, "dtype": {"type": "DT_FLOAT"}}}, {"name": "PartitionedCall/model_3/tf.concat_590/concat/axis", "op": "Const", "attr": {"value": {"tensor": {"dtype": "DT_INT32", "tensorShape": {}}}, "dtype": {"type": "DT_INT32"}}}, {"name": "PartitionedCall/model_3/tf.compat.v1.transpose_1157/transpose/perm", "op": "Const", "attr": {"value": {"tensor": {"dtype": "DT_INT32", "tensorShape": {"dim": [{"size": "4"}]}}}, "dtype": {"type": "DT_INT32"}}}, {"name": "PartitionedCall/model_3/tf.reshape_1/Reshape/shape", "op": "Const", "attr": {"value": {"tensor": {"dtype": "DT_INT32", "tensorShape": {"dim": [{"size": "3"}]}}}, "dtype": {"type": "DT_INT32"}}}, {"name": "22049", "op": "Const", "attr": {"value": {"tensor": {"dtype": "DT_FLOAT", "tensorShape": {"dim": [{"size": "3"}, {"size": "3"}, {"size": "256"}, {"size": "64"}]}}}, "dtype": {"type": "DT_FLOAT"}}}, {"name": "22059", "op": "Const", "attr": {"value": {"tensor": {"dtype": "DT_FLOAT", "tensorShape": {"dim": [{"size": "64"}]}}}, "dtype": {"type": "DT_FLOAT"}}}, {"name": "22073", "op": "Const", "attr": {"dtype": {"type": "DT_FLOAT"}, "value": {"tensor": {"dtype": "DT_FLOAT", "tensorShape": {"dim": [{"size": "3"}, {"size": "3"}, {"size": "64"}, {"size": "64"}]}}}}}, {"name": "22083", "op": "Const", "attr": {"value": {"tensor": {"dtype": "DT_FLOAT", "tensorShape": {"dim": [{"size": "64"}]}}}, "dtype": {"type": "DT_FLOAT"}}}, {"name": "22095", "op": "Const", "attr": {"value": {"tensor": {"dtype": "DT_FLOAT", "tensorShape": {"dim": [{"size": "1"}, {"size": "1"}, {"size": "64"}, {"size": "64"}]}}}, "dtype": {"type": "DT_FLOAT"}}}, {"name": "22105", "op": "Const", "attr": {"value": {"tensor": {"dtype": "DT_FLOAT", "tensorShape": {"dim": [{"size": "64"}]}}}, "dtype": {"type": "DT_FLOAT"}}}, {"name": "22033", "op": "Const", "attr": {"value": {"tensor": {"dtype": "DT_INT64", "tensorShape": {"dim": [{"size": "4"}]}}}, "dtype": {"type": "DT_INT64"}}}, {"name": "22035", "op": "Const", "attr": {"value": {"tensor": {"dtype": "DT_INT64", "tensorShape": {"dim": [{"size": "4"}]}}}, "dtype": {"type": "DT_INT64"}}}, {"name": "PartitionedCall/model_3/tf.strided_slice_14/ones_like", "op": "Const", "attr": {"dtype": {"type": "DT_INT64"}, "value": {"tensor": {"dtype": "DT_INT64", "tensorShape": {"dim": [{"size": "4"}]}}}}}, {"name": "22003", "op": "Const", "attr": {"value": {"tensor": {"dtype": "DT_INT64", "tensorShape": {"dim": [{"size": "4"}]}}}, "dtype": {"type": "DT_INT64"}}}, {"name": "22005", "op": "Const", "attr": {"value": {"tensor": {"dtype": "DT_INT64", "tensorShape": {"dim": [{"size": "4"}]}}}, "dtype": {"type": "DT_INT64"}}}, {"name": "PartitionedCall/model_3/tf.strided_slice_12/ones_like", "op": "Const", "attr": {"dtype": {"type": "DT_INT64"}, "value": {"tensor": {"dtype": "DT_INT64", "tensorShape": {"dim": [{"size": "4"}]}}}}}, {"name": "21973", "op": "Const", "attr": {"value": {"tensor": {"dtype": "DT_INT64", "tensorShape": {"dim": [{"size": "4"}]}}}, "dtype": {"type": "DT_INT64"}}}, {"name": "21975", "op": "Const", "attr": {"dtype": {"type": "DT_INT64"}, "value": {"tensor": {"dtype": "DT_INT64", "tensorShape": {"dim": [{"size": "4"}]}}}}}, {"name": "PartitionedCall/model_3/tf.strided_slice_10/ones_like", "op": "Const", "attr": {"value": {"tensor": {"dtype": "DT_INT64", "tensorShape": {"dim": [{"size": "4"}]}}}, "dtype": {"type": "DT_INT64"}}}, {"name": "PartitionedCall/model_3/lambda_1//model.13/Resize/size", "op": "Const", "attr": {"value": {"tensor": {"dtype": "DT_INT32", "tensorShape": {"dim": [{"size": "2"}]}}}, "dtype": {"type": "DT_INT32"}}}, {"name": "PartitionedCall/model_3/tf.concat_7/concat/axis", "op": "Const", "attr": {"dtype": {"type": "DT_INT32"}, "value": {"tensor": {"dtype": "DT_INT32", "tensorShape": {}}}}}, {"name": "21957", "op": "Const", "attr": {"value": {"tensor": {"dtype": "DT_FLOAT", "tensorShape": {"dim": [{"size": "1"}, {"size": "1"}, {"size": "192"}, {"size": "64"}]}}}, "dtype": {"type": "DT_FLOAT"}}}, {"name": "21959", "op": "Const", "attr": {"dtype": {"type": "DT_FLOAT"}, "value": {"tensor": {"dtype": "DT_FLOAT", "tensorShape": {"dim": [{"size": "64"}]}}}}}, {"name": "21961", "op": "Const", "attr": {"value": {"tensor": {"dtype": "DT_INT64", "tensorShape": {"dim": [{"size": "4"}]}}}, "dtype": {"type": "DT_INT64"}}}, {"name": "21963", "op": "Const", "attr": {"dtype": {"type": "DT_INT64"}, "value": {"tensor": {"dtype": "DT_INT64", "tensorShape": {"dim": [{"size": "4"}]}}}}}, {"name": "PartitionedCall/model_3/tf.strided_slice_11/ones_like", "op": "Const", "attr": {"dtype": {"type": "DT_INT64"}, "value": {"tensor": {"dtype": "DT_INT64", "tensorShape": {"dim": [{"size": "4"}]}}}}}, {"name": "21965", "op": "Const", "attr": {"value": {"tensor": {"dtype": "DT_FLOAT", "tensorShape": {"dim": [{"size": "3"}, {"size": "3"}, {"size": "32"}, {"size": "32"}]}}}, "dtype": {"type": "DT_FLOAT"}}}, {"name": "21967", "op": "Const", "attr": {"dtype": {"type": "DT_FLOAT"}, "value": {"tensor": {"dtype": "DT_FLOAT", "tensorShape": {"dim": [{"size": "32"}]}}}}}, {"name": "21969", "op": "Const", "attr": {"value": {"tensor": {"dtype": "DT_FLOAT", "tensorShape": {"dim": [{"size": "3"}, {"size": "3"}, {"size": "32"}, {"size": "32"}]}}}, "dtype": {"type": "DT_FLOAT"}}}, {"name": "21971", "op": "Const", "attr": {"value": {"tensor": {"dtype": "DT_FLOAT", "tensorShape": {"dim": [{"size": "32"}]}}}, "dtype": {"type": "DT_FLOAT"}}}, {"name": "PartitionedCall/model_3/tf.concat_8/concat/axis", "op": "Const", "attr": {"value": {"tensor": {"dtype": "DT_INT32", "tensorShape": {}}}, "dtype": {"type": "DT_INT32"}}}, {"name": "21977", "op": "Const", "attr": {"value": {"tensor": {"dtype": "DT_FLOAT", "tensorShape": {"dim": [{"size": "1"}, {"size": "1"}, {"size": "96"}, {"size": "64"}]}}}, "dtype": {"type": "DT_FLOAT"}}}, {"name": "21979", "op": "Const", "attr": {"value": {"tensor": {"dtype": "DT_FLOAT", "tensorShape": {"dim": [{"size": "64"}]}}}, "dtype": {"type": "DT_FLOAT"}}}, {"name": "21981", "op": "Const", "attr": {"dtype": {"type": "DT_INT32"}, "value": {"tensor": {"dtype": "DT_INT32", "tensorShape": {"dim": [{"size": "4"}, {"size": "2"}]}}}}}, {"name": "21983", "op": "Const", "attr": {"value": {"tensor": {"dtype": "DT_FLOAT", "tensorShape": {"dim": [{"size": "3"}, {"size": "3"}, {"size": "64"}, {"size": "64"}]}}}, "dtype": {"type": "DT_FLOAT"}}}, {"name": "21985", "op": "Const", "attr": {"value": {"tensor": {"dtype": "DT_FLOAT", "tensorShape": {"dim": [{"size": "64"}]}}}, "dtype": {"type": "DT_FLOAT"}}}, {"name": "21949", "op": "Const", "attr": {"value": {"tensor": {"dtype": "DT_INT64", "tensorShape": {"dim": [{"size": "4"}]}}}, "dtype": {"type": "DT_INT64"}}}, {"name": "21951", "op": "Const", "attr": {"dtype": {"type": "DT_INT64"}, "value": {"tensor": {"dtype": "DT_INT64", "tensorShape": {"dim": [{"size": "4"}]}}}}}, {"name": "PartitionedCall/model_3/tf.strided_slice_8/ones_like", "op": "Const", "attr": {"value": {"tensor": {"dtype": "DT_INT64", "tensorShape": {"dim": [{"size": "4"}]}}}, "dtype": {"type": "DT_INT64"}}}, {"name": "PartitionedCall/model_3/lambda//model.10/Resize/size", "op": "Const", "attr": {"dtype": {"type": "DT_INT32"}, "value": {"tensor": {"dtype": "DT_INT32", "tensorShape": {"dim": [{"size": "2"}]}}}}}, {"name": "PartitionedCall/model_3/tf.concat_5/concat/axis", "op": "Const", "attr": {"dtype": {"type": "DT_INT32"}, "value": {"tensor": {"dtype": "DT_INT32", "tensorShape": {}}}}}, {"name": "21933", "op": "Const", "attr": {"value": {"tensor": {"dtype": "DT_FLOAT", "tensorShape": {"dim": [{"size": "1"}, {"size": "1"}, {"size": "384"}, {"size": "128"}]}}}, "dtype": {"type": "DT_FLOAT"}}}, {"name": "21935", "op": "Const", "attr": {"dtype": {"type": "DT_FLOAT"}, "value": {"tensor": {"dtype": "DT_FLOAT", "tensorShape": {"dim": [{"size": "128"}]}}}}}, {"name": "21937", "op": "Const", "attr": {"value": {"tensor": {"dtype": "DT_INT64", "tensorShape": {"dim": [{"size": "4"}]}}}, "dtype": {"type": "DT_INT64"}}}, {"name": "21939", "op": "Const", "attr": {"value": {"tensor": {"dtype": "DT_INT64", "tensorShape": {"dim": [{"size": "4"}]}}}, "dtype": {"type": "DT_INT64"}}}, {"name": "PartitionedCall/model_3/tf.strided_slice_9/ones_like", "op": "Const", "attr": {"value": {"tensor": {"dtype": "DT_INT64", "tensorShape": {"dim": [{"size": "4"}]}}}, "dtype": {"type": "DT_INT64"}}}, {"name": "21941", "op": "Const", "attr": {"dtype": {"type": "DT_FLOAT"}, "value": {"tensor": {"dtype": "DT_FLOAT", "tensorShape": {"dim": [{"size": "3"}, {"size": "3"}, {"size": "64"}, {"size": "64"}]}}}}}, {"name": "21943", "op": "Const", "attr": {"dtype": {"type": "DT_FLOAT"}, "value": {"tensor": {"dtype": "DT_FLOAT", "tensorShape": {"dim": [{"size": "64"}]}}}}}, {"name": "21945", "op": "Const", "attr": {"value": {"tensor": {"dtype": "DT_FLOAT", "tensorShape": {"dim": [{"size": "3"}, {"size": "3"}, {"size": "64"}, {"size": "64"}]}}}, "dtype": {"type": "DT_FLOAT"}}}, {"name": "21947", "op": "Const", "attr": {"value": {"tensor": {"dtype": "DT_FLOAT", "tensorShape": {"dim": [{"size": "64"}]}}}, "dtype": {"type": "DT_FLOAT"}}}, {"name": "PartitionedCall/model_3/tf.concat_6/concat/axis", "op": "Const", "attr": {"dtype": {"type": "DT_INT32"}, "value": {"tensor": {"dtype": "DT_INT32", "tensorShape": {}}}}}, {"name": "21953", "op": "Const", "attr": {"value": {"tensor": {"dtype": "DT_FLOAT", "tensorShape": {"dim": [{"size": "1"}, {"size": "1"}, {"size": "192"}, {"size": "128"}]}}}, "dtype": {"type": "DT_FLOAT"}}}, {"name": "21955", "op": "Const", "attr": {"value": {"tensor": {"dtype": "DT_FLOAT", "tensorShape": {"dim": [{"size": "128"}]}}}, "dtype": {"type": "DT_FLOAT"}}}, {"name": "PartitionedCall/model_3/tf.concat_9/concat/axis", "op": "Const", "attr": {"value": {"tensor": {"dtype": "DT_INT32", "tensorShape": {}}}, "dtype": {"type": "DT_INT32"}}}, {"name": "21987", "op": "Const", "attr": {"dtype": {"type": "DT_FLOAT"}, "value": {"tensor": {"dtype": "DT_FLOAT", "tensorShape": {"dim": [{"size": "1"}, {"size": "1"}, {"size": "192"}, {"size": "128"}]}}}}}, {"name": "21989", "op": "Const", "attr": {"value": {"tensor": {"dtype": "DT_FLOAT", "tensorShape": {"dim": [{"size": "128"}]}}}, "dtype": {"type": "DT_FLOAT"}}}, {"name": "21991", "op": "Const", "attr": {"value": {"tensor": {"dtype": "DT_INT64", "tensorShape": {"dim": [{"size": "4"}]}}}, "dtype": {"type": "DT_INT64"}}}, {"name": "21993", "op": "Const", "attr": {"dtype": {"type": "DT_INT64"}, "value": {"tensor": {"dtype": "DT_INT64", "tensorShape": {"dim": [{"size": "4"}]}}}}}, {"name": "PartitionedCall/model_3/tf.strided_slice_13/ones_like", "op": "Const", "attr": {"value": {"tensor": {"dtype": "DT_INT64", "tensorShape": {"dim": [{"size": "4"}]}}}, "dtype": {"type": "DT_INT64"}}}, {"name": "21995", "op": "Const", "attr": {"dtype": {"type": "DT_FLOAT"}, "value": {"tensor": {"dtype": "DT_FLOAT", "tensorShape": {"dim": [{"size": "3"}, {"size": "3"}, {"size": "64"}, {"size": "64"}]}}}}}, {"name": "21997", "op": "Const", "attr": {"dtype": {"type": "DT_FLOAT"}, "value": {"tensor": {"dtype": "DT_FLOAT", "tensorShape": {"dim": [{"size": "64"}]}}}}}, {"name": "21999", "op": "Const", "attr": {"value": {"tensor": {"dtype": "DT_FLOAT", "tensorShape": {"dim": [{"size": "3"}, {"size": "3"}, {"size": "64"}, {"size": "64"}]}}}, "dtype": {"type": "DT_FLOAT"}}}, {"name": "22001", "op": "Const", "attr": {"dtype": {"type": "DT_FLOAT"}, "value": {"tensor": {"dtype": "DT_FLOAT", "tensorShape": {"dim": [{"size": "64"}]}}}}}, {"name": "PartitionedCall/model_3/tf.concat_588/concat/axis", "op": "Const", "attr": {"value": {"tensor": {"dtype": "DT_INT32", "tensorShape": {}}}, "dtype": {"type": "DT_INT32"}}}, {"name": "22007", "op": "Const", "attr": {"value": {"tensor": {"dtype": "DT_FLOAT", "tensorShape": {"dim": [{"size": "1"}, {"size": "1"}, {"size": "192"}, {"size": "128"}]}}}, "dtype": {"type": "DT_FLOAT"}}}, {"name": "22009", "op": "Const", "attr": {"value": {"tensor": {"dtype": "DT_FLOAT", "tensorShape": {"dim": [{"size": "128"}]}}}, "dtype": {"type": "DT_FLOAT"}}}, {"name": "22011", "op": "Const", "attr": {"dtype": {"type": "DT_INT32"}, "value": {"tensor": {"dtype": "DT_INT32", "tensorShape": {"dim": [{"size": "4"}, {"size": "2"}]}}}}}, {"name": "22013", "op": "Const", "attr": {"dtype": {"type": "DT_FLOAT"}, "value": {"tensor": {"dtype": "DT_FLOAT", "tensorShape": {"dim": [{"size": "3"}, {"size": "3"}, {"size": "128"}, {"size": "128"}]}}}}}, {"name": "22015", "op": "Const", "attr": {"dtype": {"type": "DT_FLOAT"}, "value": {"tensor": {"dtype": "DT_FLOAT", "tensorShape": {"dim": [{"size": "128"}]}}}}}, {"name": "21917", "op": "Const", "attr": {"dtype": {"type": "DT_INT64"}, "value": {"tensor": {"dtype": "DT_INT64", "tensorShape": {"dim": [{"size": "4"}]}}}}}, {"name": "21919", "op": "Const", "attr": {"value": {"tensor": {"dtype": "DT_INT64", "tensorShape": {"dim": [{"size": "4"}]}}}, "dtype": {"type": "DT_INT64"}}}, {"name": "PartitionedCall/model_3/tf.strided_slice_6/ones_like", "op": "Const", "attr": {"dtype": {"type": "DT_INT64"}, "value": {"tensor": {"dtype": "DT_INT64", "tensorShape": {"dim": [{"size": "4"}]}}}}}, {"name": "21887", "op": "Const", "attr": {"dtype": {"type": "DT_INT64"}, "value": {"tensor": {"dtype": "DT_INT64", "tensorShape": {"dim": [{"size": "4"}]}}}}}, {"name": "21889", "op": "Const", "attr": {"value": {"tensor": {"dtype": "DT_INT64", "tensorShape": {"dim": [{"size": "4"}]}}}, "dtype": {"type": "DT_INT64"}}}, {"name": "PartitionedCall/model_3/tf.strided_slice_4/ones_like", "op": "Const", "attr": {"dtype": {"type": "DT_INT64"}, "value": {"tensor": {"dtype": "DT_INT64", "tensorShape": {"dim": [{"size": "4"}]}}}}}, {"name": "21849", "op": "Const", "attr": {"dtype": {"type": "DT_INT64"}, "value": {"tensor": {"dtype": "DT_INT64", "tensorShape": {"dim": [{"size": "4"}]}}}}}, {"name": "21851", "op": "Const", "attr": {"value": {"tensor": {"dtype": "DT_INT64", "tensorShape": {"dim": [{"size": "4"}]}}}, "dtype": {"type": "DT_INT64"}}}, {"name": "PartitionedCall/model_3/tf.strided_slice_2/ones_like", "op": "Const", "attr": {"dtype": {"type": "DT_INT64"}, "value": {"tensor": {"dtype": "DT_INT64", "tensorShape": {"dim": [{"size": "4"}]}}}}}, {"name": "21811", "op": "Const", "attr": {"value": {"tensor": {"dtype": "DT_INT64", "tensorShape": {"dim": [{"size": "4"}]}}}, "dtype": {"type": "DT_INT64"}}}, {"name": "21813", "op": "Const", "attr": {"value": {"tensor": {"dtype": "DT_INT64", "tensorShape": {"dim": [{"size": "4"}]}}}, "dtype": {"type": "DT_INT64"}}}, {"name": "PartitionedCall/model_3/tf.strided_slice/ones_like", "op": "Const", "attr": {"value": {"tensor": {"dtype": "DT_INT64", "tensorShape": {"dim": [{"size": "4"}]}}}, "dtype": {"type": "DT_INT64"}}}, {"name": "21783", "op": "Const", "attr": {"dtype": {"type": "DT_INT32"}, "value": {"tensor": {"dtype": "DT_INT32", "tensorShape": {"dim": [{"size": "4"}, {"size": "2"}]}}}}}, {"name": "21785", "op": "Const", "attr": {"dtype": {"type": "DT_FLOAT"}, "value": {"tensor": {"dtype": "DT_FLOAT", "tensorShape": {"dim": [{"size": "3"}, {"size": "3"}, {"size": "3"}, {"size": "16"}]}}}}}, {"name": "21787", "op": "Const", "attr": {"dtype": {"type": "DT_FLOAT"}, "value": {"tensor": {"dtype": "DT_FLOAT", "tensorShape": {"dim": [{"size": "16"}]}}}}}, {"name": "21789", "op": "Const", "attr": {"value": {"tensor": {"dtype": "DT_INT32", "tensorShape": {"dim": [{"size": "4"}, {"size": "2"}]}}}, "dtype": {"type": "DT_INT32"}}}, {"name": "21791", "op": "Const", "attr": {"value": {"tensor": {"dtype": "DT_FLOAT", "tensorShape": {"dim": [{"size": "3"}, {"size": "3"}, {"size": "16"}, {"size": "32"}]}}}, "dtype": {"type": "DT_FLOAT"}}}, {"name": "21793", "op": "Const", "attr": {"value": {"tensor": {"dtype": "DT_FLOAT", "tensorShape": {"dim": [{"size": "32"}]}}}, "dtype": {"type": "DT_FLOAT"}}}, {"name": "21795", "op": "Const", "attr": {"dtype": {"type": "DT_FLOAT"}, "value": {"tensor": {"dtype": "DT_FLOAT", "tensorShape": {"dim": [{"size": "1"}, {"size": "1"}, {"size": "32"}, {"size": "32"}]}}}}}, {"name": "21797", "op": "Const", "attr": {"value": {"tensor": {"dtype": "DT_FLOAT", "tensorShape": {"dim": [{"size": "32"}]}}}, "dtype": {"type": "DT_FLOAT"}}}, {"name": "21799", "op": "Const", "attr": {"dtype": {"type": "DT_INT64"}, "value": {"tensor": {"dtype": "DT_INT64", "tensorShape": {"dim": [{"size": "4"}]}}}}}, {"name": "21801", "op": "Const", "attr": {"value": {"tensor": {"dtype": "DT_INT64", "tensorShape": {"dim": [{"size": "4"}]}}}, "dtype": {"type": "DT_INT64"}}}, {"name": "PartitionedCall/model_3/tf.strided_slice_1/ones_like", "op": "Const", "attr": {"value": {"tensor": {"dtype": "DT_INT64", "tensorShape": {"dim": [{"size": "4"}]}}}, "dtype": {"type": "DT_INT64"}}}, {"name": "21803", "op": "Const", "attr": {"dtype": {"type": "DT_FLOAT"}, "value": {"tensor": {"dtype": "DT_FLOAT", "tensorShape": {"dim": [{"size": "3"}, {"size": "3"}, {"size": "16"}, {"size": "16"}]}}}}}, {"name": "21805", "op": "Const", "attr": {"dtype": {"type": "DT_FLOAT"}, "value": {"tensor": {"dtype": "DT_FLOAT", "tensorShape": {"dim": [{"size": "16"}]}}}}}, {"name": "21807", "op": "Const", "attr": {"dtype": {"type": "DT_FLOAT"}, "value": {"tensor": {"dtype": "DT_FLOAT", "tensorShape": {"dim": [{"size": "3"}, {"size": "3"}, {"size": "16"}, {"size": "16"}]}}}}}, {"name": "21809", "op": "Const", "attr": {"dtype": {"type": "DT_FLOAT"}, "value": {"tensor": {"dtype": "DT_FLOAT", "tensorShape": {"dim": [{"size": "16"}]}}}}}, {"name": "PartitionedCall/model_3/tf.concat/concat/axis", "op": "Const", "attr": {"value": {"tensor": {"dtype": "DT_INT32", "tensorShape": {}}}, "dtype": {"type": "DT_INT32"}}}, {"name": "21815", "op": "Const", "attr": {"value": {"tensor": {"dtype": "DT_FLOAT", "tensorShape": {"dim": [{"size": "1"}, {"size": "1"}, {"size": "48"}, {"size": "32"}]}}}, "dtype": {"type": "DT_FLOAT"}}}, {"name": "21817", "op": "Const", "attr": {"dtype": {"type": "DT_FLOAT"}, "value": {"tensor": {"dtype": "DT_FLOAT", "tensorShape": {"dim": [{"size": "32"}]}}}}}, {"name": "21819", "op": "Const", "attr": {"value": {"tensor": {"dtype": "DT_INT32", "tensorShape": {"dim": [{"size": "4"}, {"size": "2"}]}}}, "dtype": {"type": "DT_INT32"}}}, {"name": "21821", "op": "Const", "attr": {"dtype": {"type": "DT_FLOAT"}, "value": {"tensor": {"dtype": "DT_FLOAT", "tensorShape": {"dim": [{"size": "3"}, {"size": "3"}, {"size": "32"}, {"size": "64"}]}}}}}, {"name": "21823", "op": "Const", "attr": {"value": {"tensor": {"dtype": "DT_FLOAT", "tensorShape": {"dim": [{"size": "64"}]}}}, "dtype": {"type": "DT_FLOAT"}}}, {"name": "21825", "op": "Const", "attr": {"dtype": {"type": "DT_FLOAT"}, "value": {"tensor": {"dtype": "DT_FLOAT", "tensorShape": {"dim": [{"size": "1"}, {"size": "1"}, {"size": "64"}, {"size": "64"}]}}}}}, {"name": "21827", "op": "Const", "attr": {"dtype": {"type": "DT_FLOAT"}, "value": {"tensor": {"dtype": "DT_FLOAT", "tensorShape": {"dim": [{"size": "64"}]}}}}}, {"name": "21829", "op": "Const", "attr": {"dtype": {"type": "DT_INT64"}, "value": {"tensor": {"dtype": "DT_INT64", "tensorShape": {"dim": [{"size": "4"}]}}}}}, {"name": "21831", "op": "Const", "attr": {"value": {"tensor": {"dtype": "DT_INT64", "tensorShape": {"dim": [{"size": "4"}]}}}, "dtype": {"type": "DT_INT64"}}}, {"name": "PartitionedCall/model_3/tf.strided_slice_3/ones_like", "op": "Const", "attr": {"dtype": {"type": "DT_INT64"}, "value": {"tensor": {"dtype": "DT_INT64", "tensorShape": {"dim": [{"size": "4"}]}}}}}, {"name": "21833", "op": "Const", "attr": {"dtype": {"type": "DT_FLOAT"}, "value": {"tensor": {"dtype": "DT_FLOAT", "tensorShape": {"dim": [{"size": "3"}, {"size": "3"}, {"size": "32"}, {"size": "32"}]}}}}}, {"name": "21835", "op": "Const", "attr": {"dtype": {"type": "DT_FLOAT"}, "value": {"tensor": {"dtype": "DT_FLOAT", "tensorShape": {"dim": [{"size": "32"}]}}}}}, {"name": "21837", "op": "Const", "attr": {"value": {"tensor": {"dtype": "DT_FLOAT", "tensorShape": {"dim": [{"size": "3"}, {"size": "3"}, {"size": "32"}, {"size": "32"}]}}}, "dtype": {"type": "DT_FLOAT"}}}, {"name": "21839", "op": "Const", "attr": {"dtype": {"type": "DT_FLOAT"}, "value": {"tensor": {"dtype": "DT_FLOAT", "tensorShape": {"dim": [{"size": "32"}]}}}}}, {"name": "21841", "op": "Const", "attr": {"value": {"tensor": {"dtype": "DT_FLOAT", "tensorShape": {"dim": [{"size": "3"}, {"size": "3"}, {"size": "32"}, {"size": "32"}]}}}, "dtype": {"type": "DT_FLOAT"}}}, {"name": "21843", "op": "Const", "attr": {"dtype": {"type": "DT_FLOAT"}, "value": {"tensor": {"dtype": "DT_FLOAT", "tensorShape": {"dim": [{"size": "32"}]}}}}}, {"name": "21845", "op": "Const", "attr": {"value": {"tensor": {"dtype": "DT_FLOAT", "tensorShape": {"dim": [{"size": "3"}, {"size": "3"}, {"size": "32"}, {"size": "32"}]}}}, "dtype": {"type": "DT_FLOAT"}}}, {"name": "21847", "op": "Const", "attr": {"dtype": {"type": "DT_FLOAT"}, "value": {"tensor": {"dtype": "DT_FLOAT", "tensorShape": {"dim": [{"size": "32"}]}}}}}, {"name": "PartitionedCall/model_3/tf.concat_1/concat/axis", "op": "Const", "attr": {"dtype": {"type": "DT_INT32"}, "value": {"tensor": {"dtype": "DT_INT32", "tensorShape": {}}}}}, {"name": "21853", "op": "Const", "attr": {"value": {"tensor": {"dtype": "DT_FLOAT", "tensorShape": {"dim": [{"size": "1"}, {"size": "1"}, {"size": "128"}, {"size": "64"}]}}}, "dtype": {"type": "DT_FLOAT"}}}, {"name": "21855", "op": "Const", "attr": {"dtype": {"type": "DT_FLOAT"}, "value": {"tensor": {"dtype": "DT_FLOAT", "tensorShape": {"dim": [{"size": "64"}]}}}}}, {"name": "21857", "op": "Const", "attr": {"dtype": {"type": "DT_INT32"}, "value": {"tensor": {"dtype": "DT_INT32", "tensorShape": {"dim": [{"size": "4"}, {"size": "2"}]}}}}}, {"name": "21859", "op": "Const", "attr": {"dtype": {"type": "DT_FLOAT"}, "value": {"tensor": {"dtype": "DT_FLOAT", "tensorShape": {"dim": [{"size": "3"}, {"size": "3"}, {"size": "64"}, {"size": "128"}]}}}}}, {"name": "21861", "op": "Const", "attr": {"value": {"tensor": {"dtype": "DT_FLOAT", "tensorShape": {"dim": [{"size": "128"}]}}}, "dtype": {"type": "DT_FLOAT"}}}, {"name": "21863", "op": "Const", "attr": {"value": {"tensor": {"dtype": "DT_FLOAT", "tensorShape": {"dim": [{"size": "1"}, {"size": "1"}, {"size": "128"}, {"size": "128"}]}}}, "dtype": {"type": "DT_FLOAT"}}}, {"name": "21865", "op": "Const", "attr": {"dtype": {"type": "DT_FLOAT"}, "value": {"tensor": {"dtype": "DT_FLOAT", "tensorShape": {"dim": [{"size": "128"}]}}}}}, {"name": "21867", "op": "Const", "attr": {"value": {"tensor": {"dtype": "DT_INT64", "tensorShape": {"dim": [{"size": "4"}]}}}, "dtype": {"type": "DT_INT64"}}}, {"name": "21869", "op": "Const", "attr": {"dtype": {"type": "DT_INT64"}, "value": {"tensor": {"dtype": "DT_INT64", "tensorShape": {"dim": [{"size": "4"}]}}}}}, {"name": "PartitionedCall/model_3/tf.strided_slice_5/ones_like", "op": "Const", "attr": {"dtype": {"type": "DT_INT64"}, "value": {"tensor": {"dtype": "DT_INT64", "tensorShape": {"dim": [{"size": "4"}]}}}}}, {"name": "21871", "op": "Const", "attr": {"value": {"tensor": {"dtype": "DT_FLOAT", "tensorShape": {"dim": [{"size": "3"}, {"size": "3"}, {"size": "64"}, {"size": "64"}]}}}, "dtype": {"type": "DT_FLOAT"}}}, {"name": "21873", "op": "Const", "attr": {"dtype": {"type": "DT_FLOAT"}, "value": {"tensor": {"dtype": "DT_FLOAT", "tensorShape": {"dim": [{"size": "64"}]}}}}}, {"name": "21875", "op": "Const", "attr": {"dtype": {"type": "DT_FLOAT"}, "value": {"tensor": {"dtype": "DT_FLOAT", "tensorShape": {"dim": [{"size": "3"}, {"size": "3"}, {"size": "64"}, {"size": "64"}]}}}}}, {"name": "21877", "op": "Const", "attr": {"dtype": {"type": "DT_FLOAT"}, "value": {"tensor": {"dtype": "DT_FLOAT", "tensorShape": {"dim": [{"size": "64"}]}}}}}, {"name": "21879", "op": "Const", "attr": {"value": {"tensor": {"dtype": "DT_FLOAT", "tensorShape": {"dim": [{"size": "3"}, {"size": "3"}, {"size": "64"}, {"size": "64"}]}}}, "dtype": {"type": "DT_FLOAT"}}}, {"name": "21881", "op": "Const", "attr": {"dtype": {"type": "DT_FLOAT"}, "value": {"tensor": {"dtype": "DT_FLOAT", "tensorShape": {"dim": [{"size": "64"}]}}}}}, {"name": "21883", "op": "Const", "attr": {"value": {"tensor": {"dtype": "DT_FLOAT", "tensorShape": {"dim": [{"size": "3"}, {"size": "3"}, {"size": "64"}, {"size": "64"}]}}}, "dtype": {"type": "DT_FLOAT"}}}, {"name": "21885", "op": "Const", "attr": {"dtype": {"type": "DT_FLOAT"}, "value": {"tensor": {"dtype": "DT_FLOAT", "tensorShape": {"dim": [{"size": "64"}]}}}}}, {"name": "PartitionedCall/model_3/tf.concat_2/concat/axis", "op": "Const", "attr": {"dtype": {"type": "DT_INT32"}, "value": {"tensor": {"dtype": "DT_INT32", "tensorShape": {}}}}}, {"name": "21891", "op": "Const", "attr": {"dtype": {"type": "DT_FLOAT"}, "value": {"tensor": {"dtype": "DT_FLOAT", "tensorShape": {"dim": [{"size": "1"}, {"size": "1"}, {"size": "256"}, {"size": "128"}]}}}}}, {"name": "21893", "op": "Const", "attr": {"dtype": {"type": "DT_FLOAT"}, "value": {"tensor": {"dtype": "DT_FLOAT", "tensorShape": {"dim": [{"size": "128"}]}}}}}, {"name": "21895", "op": "Const", "attr": {"dtype": {"type": "DT_INT32"}, "value": {"tensor": {"dtype": "DT_INT32", "tensorShape": {"dim": [{"size": "4"}, {"size": "2"}]}}}}}, {"name": "21897", "op": "Const", "attr": {"dtype": {"type": "DT_FLOAT"}, "value": {"tensor": {"dtype": "DT_FLOAT", "tensorShape": {"dim": [{"size": "3"}, {"size": "3"}, {"size": "128"}, {"size": "256"}]}}}}}, {"name": "21899", "op": "Const", "attr": {"value": {"tensor": {"dtype": "DT_FLOAT", "tensorShape": {"dim": [{"size": "256"}]}}}, "dtype": {"type": "DT_FLOAT"}}}, {"name": "21901", "op": "Const", "attr": {"value": {"tensor": {"dtype": "DT_FLOAT", "tensorShape": {"dim": [{"size": "1"}, {"size": "1"}, {"size": "256"}, {"size": "256"}]}}}, "dtype": {"type": "DT_FLOAT"}}}, {"name": "21903", "op": "Const", "attr": {"value": {"tensor": {"dtype": "DT_FLOAT", "tensorShape": {"dim": [{"size": "256"}]}}}, "dtype": {"type": "DT_FLOAT"}}}, {"name": "21905", "op": "Const", "attr": {"value": {"tensor": {"dtype": "DT_INT64", "tensorShape": {"dim": [{"size": "4"}]}}}, "dtype": {"type": "DT_INT64"}}}, {"name": "21907", "op": "Const", "attr": {"value": {"tensor": {"dtype": "DT_INT64", "tensorShape": {"dim": [{"size": "4"}]}}}, "dtype": {"type": "DT_INT64"}}}, {"name": "PartitionedCall/model_3/tf.strided_slice_7/ones_like", "op": "Const", "attr": {"value": {"tensor": {"dtype": "DT_INT64", "tensorShape": {"dim": [{"size": "4"}]}}}, "dtype": {"type": "DT_INT64"}}}, {"name": "21909", "op": "Const", "attr": {"dtype": {"type": "DT_FLOAT"}, "value": {"tensor": {"dtype": "DT_FLOAT", "tensorShape": {"dim": [{"size": "3"}, {"size": "3"}, {"size": "128"}, {"size": "128"}]}}}}}, {"name": "21911", "op": "Const", "attr": {"dtype": {"type": "DT_FLOAT"}, "value": {"tensor": {"dtype": "DT_FLOAT", "tensorShape": {"dim": [{"size": "128"}]}}}}}, {"name": "21913", "op": "Const", "attr": {"dtype": {"type": "DT_FLOAT"}, "value": {"tensor": {"dtype": "DT_FLOAT", "tensorShape": {"dim": [{"size": "3"}, {"size": "3"}, {"size": "128"}, {"size": "128"}]}}}}}, {"name": "21915", "op": "Const", "attr": {"dtype": {"type": "DT_FLOAT"}, "value": {"tensor": {"dtype": "DT_FLOAT", "tensorShape": {"dim": [{"size": "128"}]}}}}}, {"name": "PartitionedCall/model_3/tf.concat_3/concat/axis", "op": "Const", "attr": {"dtype": {"type": "DT_INT32"}, "value": {"tensor": {"dtype": "DT_INT32", "tensorShape": {}}}}}, {"name": "21921", "op": "Const", "attr": {"dtype": {"type": "DT_FLOAT"}, "value": {"tensor": {"dtype": "DT_FLOAT", "tensorShape": {"dim": [{"size": "1"}, {"size": "1"}, {"size": "384"}, {"size": "256"}]}}}}}, {"name": "21923", "op": "Const", "attr": {"dtype": {"type": "DT_FLOAT"}, "value": {"tensor": {"dtype": "DT_FLOAT", "tensorShape": {"dim": [{"size": "256"}]}}}}}, {"name": "21925", "op": "Const", "attr": {"dtype": {"type": "DT_FLOAT"}, "value": {"tensor": {"dtype": "DT_FLOAT", "tensorShape": {"dim": [{"size": "1"}, {"size": "1"}, {"size": "256"}, {"size": "128"}]}}}}}, {"name": "21927", "op": "Const", "attr": {"dtype": {"type": "DT_FLOAT"}, "value": {"tensor": {"dtype": "DT_FLOAT", "tensorShape": {"dim": [{"size": "128"}]}}}}}, {"name": "PartitionedCall/model_3/tf.concat_4/concat/axis", "op": "Const", "attr": {"value": {"tensor": {"dtype": "DT_INT32", "tensorShape": {}}}, "dtype": {"type": "DT_INT32"}}}, {"name": "21929", "op": "Const", "attr": {"value": {"tensor": {"dtype": "DT_FLOAT", "tensorShape": {"dim": [{"size": "1"}, {"size": "1"}, {"size": "512"}, {"size": "256"}]}}}, "dtype": {"type": "DT_FLOAT"}}}, {"name": "21931", "op": "Const", "attr": {"dtype": {"type": "DT_FLOAT"}, "value": {"tensor": {"dtype": "DT_FLOAT", "tensorShape": {"dim": [{"size": "256"}]}}}}}, {"name": "PartitionedCall/model_3/tf.concat_589/concat/axis", "op": "Const", "attr": {"dtype": {"type": "DT_INT32"}, "value": {"tensor": {"dtype": "DT_INT32", "tensorShape": {}}}}}, {"name": "22017", "op": "Const", "attr": {"value": {"tensor": {"dtype": "DT_FLOAT", "tensorShape": {"dim": [{"size": "1"}, {"size": "1"}, {"size": "384"}, {"size": "256"}]}}}, "dtype": {"type": "DT_FLOAT"}}}, {"name": "22019", "op": "Const", "attr": {"value": {"tensor": {"dtype": "DT_FLOAT", "tensorShape": {"dim": [{"size": "256"}]}}}, "dtype": {"type": "DT_FLOAT"}}}, {"name": "22021", "op": "Const", "attr": {"dtype": {"type": "DT_INT64"}, "value": {"tensor": {"dtype": "DT_INT64", "tensorShape": {"dim": [{"size": "4"}]}}}}}, {"name": "22023", "op": "Const", "attr": {"value": {"tensor": {"dtype": "DT_INT64", "tensorShape": {"dim": [{"size": "4"}]}}}, "dtype": {"type": "DT_INT64"}}}, {"name": "PartitionedCall/model_3/tf.strided_slice_15/ones_like", "op": "Const", "attr": {"value": {"tensor": {"dtype": "DT_INT64", "tensorShape": {"dim": [{"size": "4"}]}}}, "dtype": {"type": "DT_INT64"}}}, {"name": "22025", "op": "Const", "attr": {"value": {"tensor": {"dtype": "DT_FLOAT", "tensorShape": {"dim": [{"size": "3"}, {"size": "3"}, {"size": "128"}, {"size": "128"}]}}}, "dtype": {"type": "DT_FLOAT"}}}, {"name": "22027", "op": "Const", "attr": {"value": {"tensor": {"dtype": "DT_FLOAT", "tensorShape": {"dim": [{"size": "128"}]}}}, "dtype": {"type": "DT_FLOAT"}}}, {"name": "22029", "op": "Const", "attr": {"value": {"tensor": {"dtype": "DT_FLOAT", "tensorShape": {"dim": [{"size": "3"}, {"size": "3"}, {"size": "128"}, {"size": "128"}]}}}, "dtype": {"type": "DT_FLOAT"}}}, {"name": "22031", "op": "Const", "attr": {"dtype": {"type": "DT_FLOAT"}, "value": {"tensor": {"dtype": "DT_FLOAT", "tensorShape": {"dim": [{"size": "128"}]}}}}}, {"name": "PartitionedCall/model_3/tf.concat_591/concat/axis", "op": "Const", "attr": {"value": {"tensor": {"dtype": "DT_INT32", "tensorShape": {}}}, "dtype": {"type": "DT_INT32"}}}, {"name": "22037", "op": "Const", "attr": {"value": {"tensor": {"dtype": "DT_FLOAT", "tensorShape": {"dim": [{"size": "1"}, {"size": "1"}, {"size": "384"}, {"size": "256"}]}}}, "dtype": {"type": "DT_FLOAT"}}}, {"name": "22039", "op": "Const", "attr": {"value": {"tensor": {"dtype": "DT_FLOAT", "tensorShape": {"dim": [{"size": "256"}]}}}, "dtype": {"type": "DT_FLOAT"}}}, {"name": "22047", "op": "Const", "attr": {"value": {"tensor": {"dtype": "DT_FLOAT", "tensorShape": {"dim": [{"size": "3"}, {"size": "3"}, {"size": "256"}, {"size": "80"}]}}}, "dtype": {"type": "DT_FLOAT"}}}, {"name": "22057", "op": "Const", "attr": {"dtype": {"type": "DT_FLOAT"}, "value": {"tensor": {"dtype": "DT_FLOAT", "tensorShape": {"dim": [{"size": "80"}]}}}}}, {"name": "22071", "op": "Const", "attr": {"dtype": {"type": "DT_FLOAT"}, "value": {"tensor": {"dtype": "DT_FLOAT", "tensorShape": {"dim": [{"size": "3"}, {"size": "3"}, {"size": "80"}, {"size": "80"}]}}}}}, {"name": "22081", "op": "Const", "attr": {"value": {"tensor": {"dtype": "DT_FLOAT", "tensorShape": {"dim": [{"size": "80"}]}}}, "dtype": {"type": "DT_FLOAT"}}}, {"name": "22093", "op": "Const", "attr": {"value": {"tensor": {"dtype": "DT_FLOAT", "tensorShape": {"dim": [{"size": "1"}, {"size": "1"}, {"size": "80"}, {"size": "80"}]}}}, "dtype": {"type": "DT_FLOAT"}}}, {"name": "22107", "op": "Const", "attr": {"value": {"tensor": {"dtype": "DT_FLOAT", "tensorShape": {"dim": [{"size": "80"}]}}}, "dtype": {"type": "DT_FLOAT"}}}, {"name": "PartitionedCall/model_3/tf.concat_592/concat/axis", "op": "Const", "attr": {"dtype": {"type": "DT_INT32"}, "value": {"tensor": {"dtype": "DT_INT32", "tensorShape": {}}}}}, {"name": "PartitionedCall/model_3/tf.compat.v1.transpose_1158/transpose/perm", "op": "Const", "attr": {"value": {"tensor": {"dtype": "DT_INT32", "tensorShape": {"dim": [{"size": "4"}]}}}, "dtype": {"type": "DT_INT32"}}}, {"name": "PartitionedCall/model_3/tf.reshape_2/Reshape/shape", "op": "Const", "attr": {"dtype": {"type": "DT_INT32"}, "value": {"tensor": {"dtype": "DT_INT32", "tensorShape": {"dim": [{"size": "3"}]}}}}}, {"name": "PartitionedCall/model_3/tf.concat_593/concat/axis", "op": "Const", "attr": {"value": {"tensor": {"dtype": "DT_INT32", "tensorShape": {}}}, "dtype": {"type": "DT_INT32"}}}, {"name": "22133", "op": "Const", "attr": {"value": {"tensor": {"dtype": "DT_INT64", "tensorShape": {"dim": [{"size": "3"}]}}}, "dtype": {"type": "DT_INT64"}}}, {"name": "22135", "op": "Const", "attr": {"dtype": {"type": "DT_INT64"}, "value": {"tensor": {"dtype": "DT_INT64", "tensorShape": {"dim": [{"size": "3"}]}}}}}, {"name": "PartitionedCall/model_3/tf.strided_slice_17/StridedSlice/strides", "op": "Const", "attr": {"value": {"tensor": {"dtype": "DT_INT64", "tensorShape": {"dim": [{"size": "3"}]}}}, "dtype": {"type": "DT_INT64"}}}, {"name": "PartitionedCall/model_3/output0/concat/axis", "op": "Const", "attr": {"dtype": {"type": "DT_INT32"}, "value": {"tensor": {"dtype": "DT_INT32", "tensorShape": {}}}}}, {"name": "x", "op": "Placeholder", "attr": {"shape": {"shape": {"dim": [{"size": "1"}, {"size": "640"}, {"size": "640"}, {"size": "3"}]}}, "dtype": {"type": "DT_FLOAT"}}}, {"name": "PartitionedCall/model_3/tf.compat.v1.pad/Pad", "op": "Pad", "input": ["x", "21783"], "attr": {"Tpaddings": {"type": "DT_INT32"}, "T": {"type": "DT_FLOAT"}}}, {"name": "PartitionedCall/model_3/tf.nn.convolution/convolution", "op": "Conv2D", "input": ["PartitionedCall/model_3/tf.compat.v1.pad/Pad", "21785"], "device": "/device:CPU:0", "attr": {"use_cudnn_on_gpu": {"b": true}, "padding": {"s": "VkFMSUQ="}, "strides": {"list": {"i": ["1", "2", "2", "1"]}}, "T": {"type": "DT_FLOAT"}, "data_format": {"s": "TkhXQw=="}, "dilations": {"list": {"i": ["1", "1", "1", "1"]}}, "explicit_paddings": {"list": {}}}}, {"name": "PartitionedCall/model_3/tf.math.add/Add", "op": "AddV2", "input": ["PartitionedCall/model_3/tf.nn.convolution/convolution", "21787"], "attr": {"T": {"type": "DT_FLOAT"}}}, {"name": "PartitionedCall/model_3/tf.math.sigmoid/Sigmoid", "op": "Sigmoid", "input": ["PartitionedCall/model_3/tf.math.add/Add"], "attr": {"T": {"type": "DT_FLOAT"}}}, {"name": "PartitionedCall/model_3/tf.math.multiply_2/Mul", "op": "Mul", "input": ["PartitionedCall/model_3/tf.math.add/Add", "PartitionedCall/model_3/tf.math.sigmoid/Sigmoid"], "attr": {"T": {"type": "DT_FLOAT"}}}, {"name": "PartitionedCall/model_3/tf.compat.v1.pad_1/Pad", "op": "Pad", "input": ["PartitionedCall/model_3/tf.math.multiply_2/Mul", "21789"], "attr": {"T": {"type": "DT_FLOAT"}, "Tpaddings": {"type": "DT_INT32"}}}, {"name": "PartitionedCall/model_3/tf.nn.convolution_1/convolution", "op": "Conv2D", "input": ["PartitionedCall/model_3/tf.compat.v1.pad_1/Pad", "21791"], "device": "/device:CPU:0", "attr": {"strides": {"list": {"i": ["1", "2", "2", "1"]}}, "explicit_paddings": {"list": {}}, "dilations": {"list": {"i": ["1", "1", "1", "1"]}}, "data_format": {"s": "TkhXQw=="}, "T": {"type": "DT_FLOAT"}, "padding": {"s": "VkFMSUQ="}, "use_cudnn_on_gpu": {"b": true}}}, {"name": "PartitionedCall/model_3/tf.math.add_1/Add", "op": "AddV2", "input": ["PartitionedCall/model_3/tf.nn.convolution_1/convolution", "21793"], "attr": {"T": {"type": "DT_FLOAT"}}}, {"name": "PartitionedCall/model_3/tf.math.sigmoid_1/Sigmoid", "op": "Sigmoid", "input": ["PartitionedCall/model_3/tf.math.add_1/Add"], "attr": {"T": {"type": "DT_FLOAT"}}}, {"name": "PartitionedCall/model_3/tf.math.multiply_5/Mul", "op": "Mul", "input": ["PartitionedCall/model_3/tf.math.add_1/Add", "PartitionedCall/model_3/tf.math.sigmoid_1/Sigmoid"], "attr": {"T": {"type": "DT_FLOAT"}}}, {"name": "PartitionedCall/model_3/tf.nn.convolution_2/convolution", "op": "Conv2D", "input": ["PartitionedCall/model_3/tf.math.multiply_5/Mul", "21795"], "device": "/device:CPU:0", "attr": {"data_format": {"s": "TkhXQw=="}, "padding": {"s": "U0FNRQ=="}, "strides": {"list": {"i": ["1", "1", "1", "1"]}}, "dilations": {"list": {"i": ["1", "1", "1", "1"]}}, "explicit_paddings": {"list": {}}, "use_cudnn_on_gpu": {"b": true}, "T": {"type": "DT_FLOAT"}}}, {"name": "PartitionedCall/model_3/tf.math.add_2/Add", "op": "AddV2", "input": ["PartitionedCall/model_3/tf.nn.convolution_2/convolution", "21797"], "attr": {"T": {"type": "DT_FLOAT"}}}, {"name": "PartitionedCall/model_3/tf.math.sigmoid_2/Sigmoid", "op": "Sigmoid", "input": ["PartitionedCall/model_3/tf.math.add_2/Add"], "attr": {"T": {"type": "DT_FLOAT"}}}, {"name": "PartitionedCall/model_3/tf.math.multiply_8/Mul", "op": "Mul", "input": ["PartitionedCall/model_3/tf.math.add_2/Add", "PartitionedCall/model_3/tf.math.sigmoid_2/Sigmoid"], "attr": {"T": {"type": "DT_FLOAT"}}}, {"name": "PartitionedCall/model_3/tf.strided_slice/StridedSlice", "op": "StridedSlice", "input": ["PartitionedCall/model_3/tf.math.multiply_8/Mul", "21811", "21813", "PartitionedCall/model_3/tf.strided_slice/ones_like"], "attr": {"Index": {"type": "DT_INT64"}, "begin_mask": {"i": "15"}, "shrink_axis_mask": {"i": "0"}, "end_mask": {"i": "7"}, "T": {"type": "DT_FLOAT"}, "ellipsis_mask": {"i": "0"}, "new_axis_mask": {"i": "0"}}}, {"name": "PartitionedCall/model_3/tf.strided_slice_1/StridedSlice", "op": "StridedSlice", "input": ["PartitionedCall/model_3/tf.math.multiply_8/Mul", "21799", "21801", "PartitionedCall/model_3/tf.strided_slice_1/ones_like"], "attr": {"end_mask": {"i": "7"}, "ellipsis_mask": {"i": "0"}, "shrink_axis_mask": {"i": "0"}, "T": {"type": "DT_FLOAT"}, "Index": {"type": "DT_INT64"}, "begin_mask": {"i": "7"}, "new_axis_mask": {"i": "0"}}}, {"name": "PartitionedCall/model_3/tf.nn.convolution_3/convolution", "op": "Conv2D", "input": ["PartitionedCall/model_3/tf.strided_slice_1/StridedSlice", "21803"], "device": "/device:CPU:0", "attr": {"T": {"type": "DT_FLOAT"}, "data_format": {"s": "TkhXQw=="}, "explicit_paddings": {"list": {}}, "padding": {"s": "U0FNRQ=="}, "dilations": {"list": {"i": ["1", "1", "1", "1"]}}, "use_cudnn_on_gpu": {"b": true}, "strides": {"list": {"i": ["1", "1", "1", "1"]}}}}, {"name": "PartitionedCall/model_3/tf.math.add_3/Add", "op": "AddV2", "input": ["PartitionedCall/model_3/tf.nn.convolution_3/convolution", "21805"], "attr": {"T": {"type": "DT_FLOAT"}}}, {"name": "PartitionedCall/model_3/tf.math.sigmoid_3/Sigmoid", "op": "Sigmoid", "input": ["PartitionedCall/model_3/tf.math.add_3/Add"], "attr": {"T": {"type": "DT_FLOAT"}}}, {"name": "PartitionedCall/model_3/tf.math.multiply_11/Mul", "op": "Mul", "input": ["PartitionedCall/model_3/tf.math.add_3/Add", "PartitionedCall/model_3/tf.math.sigmoid_3/Sigmoid"], "attr": {"T": {"type": "DT_FLOAT"}}}, {"name": "PartitionedCall/model_3/tf.nn.convolution_4/convolution", "op": "Conv2D", "input": ["PartitionedCall/model_3/tf.math.multiply_11/Mul", "21807"], "device": "/device:CPU:0", "attr": {"dilations": {"list": {"i": ["1", "1", "1", "1"]}}, "T": {"type": "DT_FLOAT"}, "strides": {"list": {"i": ["1", "1", "1", "1"]}}, "padding": {"s": "U0FNRQ=="}, "use_cudnn_on_gpu": {"b": true}, "explicit_paddings": {"list": {}}, "data_format": {"s": "TkhXQw=="}}}, {"name": "PartitionedCall/model_3/tf.math.add_4/Add", "op": "AddV2", "input": ["PartitionedCall/model_3/tf.nn.convolution_4/convolution", "21809"], "attr": {"T": {"type": "DT_FLOAT"}}}, {"name": "PartitionedCall/model_3/tf.math.sigmoid_4/Sigmoid", "op": "Sigmoid", "input": ["PartitionedCall/model_3/tf.math.add_4/Add"], "attr": {"T": {"type": "DT_FLOAT"}}}, {"name": "PartitionedCall/model_3/tf.math.multiply_14/Mul", "op": "Mul", "input": ["PartitionedCall/model_3/tf.math.add_4/Add", "PartitionedCall/model_3/tf.math.sigmoid_4/Sigmoid"], "attr": {"T": {"type": "DT_FLOAT"}}}, {"name": "PartitionedCall/model_3/tf.math.add_5/Add", "op": "AddV2", "input": ["PartitionedCall/model_3/tf.strided_slice_1/StridedSlice", "PartitionedCall/model_3/tf.math.multiply_14/Mul"], "attr": {"T": {"type": "DT_FLOAT"}}}, {"name": "PartitionedCall/model_3/tf.concat/concat", "op": "ConcatV2", "input": ["PartitionedCall/model_3/tf.strided_slice/StridedSlice", "PartitionedCall/model_3/tf.strided_slice_1/StridedSlice", "PartitionedCall/model_3/tf.math.add_5/Add", "PartitionedCall/model_3/tf.concat/concat/axis"], "attr": {"Tidx": {"type": "DT_INT32"}, "N": {"i": "3"}, "T": {"type": "DT_FLOAT"}}}, {"name": "PartitionedCall/model_3/tf.nn.convolution_5/convolution", "op": "Conv2D", "input": ["PartitionedCall/model_3/tf.concat/concat", "21815"], "device": "/device:CPU:0", "attr": {"strides": {"list": {"i": ["1", "1", "1", "1"]}}, "explicit_paddings": {"list": {}}, "T": {"type": "DT_FLOAT"}, "use_cudnn_on_gpu": {"b": true}, "data_format": {"s": "TkhXQw=="}, "padding": {"s": "U0FNRQ=="}, "dilations": {"list": {"i": ["1", "1", "1", "1"]}}}}, {"name": "PartitionedCall/model_3/tf.math.add_6/Add", "op": "AddV2", "input": ["PartitionedCall/model_3/tf.nn.convolution_5/convolution", "21817"], "attr": {"T": {"type": "DT_FLOAT"}}}, {"name": "PartitionedCall/model_3/tf.math.sigmoid_5/Sigmoid", "op": "Sigmoid", "input": ["PartitionedCall/model_3/tf.math.add_6/Add"], "attr": {"T": {"type": "DT_FLOAT"}}}, {"name": "PartitionedCall/model_3/tf.math.multiply_19/Mul", "op": "Mul", "input": ["PartitionedCall/model_3/tf.math.add_6/Add", "PartitionedCall/model_3/tf.math.sigmoid_5/Sigmoid"], "attr": {"T": {"type": "DT_FLOAT"}}}, {"name": "PartitionedCall/model_3/tf.compat.v1.pad_2/Pad", "op": "Pad", "input": ["PartitionedCall/model_3/tf.math.multiply_19/Mul", "21819"], "attr": {"Tpaddings": {"type": "DT_INT32"}, "T": {"type": "DT_FLOAT"}}}, {"name": "PartitionedCall/model_3/tf.nn.convolution_6/convolution", "op": "Conv2D", "input": ["PartitionedCall/model_3/tf.compat.v1.pad_2/Pad", "21821"], "device": "/device:CPU:0", "attr": {"dilations": {"list": {"i": ["1", "1", "1", "1"]}}, "strides": {"list": {"i": ["1", "2", "2", "1"]}}, "explicit_paddings": {"list": {}}, "use_cudnn_on_gpu": {"b": true}, "T": {"type": "DT_FLOAT"}, "padding": {"s": "VkFMSUQ="}, "data_format": {"s": "TkhXQw=="}}}, {"name": "PartitionedCall/model_3/tf.math.add_7/Add", "op": "AddV2", "input": ["PartitionedCall/model_3/tf.nn.convolution_6/convolution", "21823"], "attr": {"T": {"type": "DT_FLOAT"}}}, {"name": "PartitionedCall/model_3/tf.math.sigmoid_6/Sigmoid", "op": "Sigmoid", "input": ["PartitionedCall/model_3/tf.math.add_7/Add"], "attr": {"T": {"type": "DT_FLOAT"}}}, {"name": "PartitionedCall/model_3/tf.math.multiply_22/Mul", "op": "Mul", "input": ["PartitionedCall/model_3/tf.math.add_7/Add", "PartitionedCall/model_3/tf.math.sigmoid_6/Sigmoid"], "attr": {"T": {"type": "DT_FLOAT"}}}, {"name": "PartitionedCall/model_3/tf.nn.convolution_7/convolution", "op": "Conv2D", "input": ["PartitionedCall/model_3/tf.math.multiply_22/Mul", "21825"], "device": "/device:CPU:0", "attr": {"data_format": {"s": "TkhXQw=="}, "padding": {"s": "U0FNRQ=="}, "dilations": {"list": {"i": ["1", "1", "1", "1"]}}, "strides": {"list": {"i": ["1", "1", "1", "1"]}}, "explicit_paddings": {"list": {}}, "T": {"type": "DT_FLOAT"}, "use_cudnn_on_gpu": {"b": true}}}, {"name": "PartitionedCall/model_3/tf.math.add_8/Add", "op": "AddV2", "input": ["PartitionedCall/model_3/tf.nn.convolution_7/convolution", "21827"], "attr": {"T": {"type": "DT_FLOAT"}}}, {"name": "PartitionedCall/model_3/tf.math.sigmoid_7/Sigmoid", "op": "Sigmoid", "input": ["PartitionedCall/model_3/tf.math.add_8/Add"], "attr": {"T": {"type": "DT_FLOAT"}}}, {"name": "PartitionedCall/model_3/tf.math.multiply_25/Mul", "op": "Mul", "input": ["PartitionedCall/model_3/tf.math.add_8/Add", "PartitionedCall/model_3/tf.math.sigmoid_7/Sigmoid"], "attr": {"T": {"type": "DT_FLOAT"}}}, {"name": "PartitionedCall/model_3/tf.strided_slice_2/StridedSlice", "op": "StridedSlice", "input": ["PartitionedCall/model_3/tf.math.multiply_25/Mul", "21849", "21851", "PartitionedCall/model_3/tf.strided_slice_2/ones_like"], "attr": {"begin_mask": {"i": "15"}, "shrink_axis_mask": {"i": "0"}, "end_mask": {"i": "7"}, "new_axis_mask": {"i": "0"}, "Index": {"type": "DT_INT64"}, "T": {"type": "DT_FLOAT"}, "ellipsis_mask": {"i": "0"}}}, {"name": "PartitionedCall/model_3/tf.strided_slice_3/StridedSlice", "op": "StridedSlice", "input": ["PartitionedCall/model_3/tf.math.multiply_25/Mul", "21829", "21831", "PartitionedCall/model_3/tf.strided_slice_3/ones_like"], "attr": {"end_mask": {"i": "7"}, "shrink_axis_mask": {"i": "0"}, "Index": {"type": "DT_INT64"}, "new_axis_mask": {"i": "0"}, "T": {"type": "DT_FLOAT"}, "ellipsis_mask": {"i": "0"}, "begin_mask": {"i": "7"}}}, {"name": "PartitionedCall/model_3/tf.nn.convolution_8/convolution", "op": "Conv2D", "input": ["PartitionedCall/model_3/tf.strided_slice_3/StridedSlice", "21833"], "device": "/device:CPU:0", "attr": {"use_cudnn_on_gpu": {"b": true}, "data_format": {"s": "TkhXQw=="}, "dilations": {"list": {"i": ["1", "1", "1", "1"]}}, "T": {"type": "DT_FLOAT"}, "strides": {"list": {"i": ["1", "1", "1", "1"]}}, "explicit_paddings": {"list": {}}, "padding": {"s": "U0FNRQ=="}}}, {"name": "PartitionedCall/model_3/tf.math.add_9/Add", "op": "AddV2", "input": ["PartitionedCall/model_3/tf.nn.convolution_8/convolution", "21835"], "attr": {"T": {"type": "DT_FLOAT"}}}, {"name": "PartitionedCall/model_3/tf.math.sigmoid_8/Sigmoid", "op": "Sigmoid", "input": ["PartitionedCall/model_3/tf.math.add_9/Add"], "attr": {"T": {"type": "DT_FLOAT"}}}, {"name": "PartitionedCall/model_3/tf.math.multiply_28/Mul", "op": "Mul", "input": ["PartitionedCall/model_3/tf.math.add_9/Add", "PartitionedCall/model_3/tf.math.sigmoid_8/Sigmoid"], "attr": {"T": {"type": "DT_FLOAT"}}}, {"name": "PartitionedCall/model_3/tf.nn.convolution_9/convolution", "op": "Conv2D", "input": ["PartitionedCall/model_3/tf.math.multiply_28/Mul", "21837"], "device": "/device:CPU:0", "attr": {"T": {"type": "DT_FLOAT"}, "dilations": {"list": {"i": ["1", "1", "1", "1"]}}, "data_format": {"s": "TkhXQw=="}, "strides": {"list": {"i": ["1", "1", "1", "1"]}}, "padding": {"s": "U0FNRQ=="}, "use_cudnn_on_gpu": {"b": true}, "explicit_paddings": {"list": {}}}}, {"name": "PartitionedCall/model_3/tf.math.add_10/Add", "op": "AddV2", "input": ["PartitionedCall/model_3/tf.nn.convolution_9/convolution", "21839"], "attr": {"T": {"type": "DT_FLOAT"}}}, {"name": "PartitionedCall/model_3/tf.math.sigmoid_9/Sigmoid", "op": "Sigmoid", "input": ["PartitionedCall/model_3/tf.math.add_10/Add"], "attr": {"T": {"type": "DT_FLOAT"}}}, {"name": "PartitionedCall/model_3/tf.math.multiply_31/Mul", "op": "Mul", "input": ["PartitionedCall/model_3/tf.math.add_10/Add", "PartitionedCall/model_3/tf.math.sigmoid_9/Sigmoid"], "attr": {"T": {"type": "DT_FLOAT"}}}, {"name": "PartitionedCall/model_3/tf.math.add_11/Add", "op": "AddV2", "input": ["PartitionedCall/model_3/tf.strided_slice_3/StridedSlice", "PartitionedCall/model_3/tf.math.multiply_31/Mul"], "attr": {"T": {"type": "DT_FLOAT"}}}, {"name": "PartitionedCall/model_3/tf.nn.convolution_10/convolution", "op": "Conv2D", "input": ["PartitionedCall/model_3/tf.math.add_11/Add", "21841"], "device": "/device:CPU:0", "attr": {"data_format": {"s": "TkhXQw=="}, "T": {"type": "DT_FLOAT"}, "strides": {"list": {"i": ["1", "1", "1", "1"]}}, "use_cudnn_on_gpu": {"b": true}, "padding": {"s": "U0FNRQ=="}, "explicit_paddings": {"list": {}}, "dilations": {"list": {"i": ["1", "1", "1", "1"]}}}}, {"name": "PartitionedCall/model_3/tf.math.add_12/Add", "op": "AddV2", "input": ["PartitionedCall/model_3/tf.nn.convolution_10/convolution", "21843"], "attr": {"T": {"type": "DT_FLOAT"}}}, {"name": "PartitionedCall/model_3/tf.math.sigmoid_10/Sigmoid", "op": "Sigmoid", "input": ["PartitionedCall/model_3/tf.math.add_12/Add"], "attr": {"T": {"type": "DT_FLOAT"}}}, {"name": "PartitionedCall/model_3/tf.math.multiply_36/Mul", "op": "Mul", "input": ["PartitionedCall/model_3/tf.math.add_12/Add", "PartitionedCall/model_3/tf.math.sigmoid_10/Sigmoid"], "attr": {"T": {"type": "DT_FLOAT"}}}, {"name": "PartitionedCall/model_3/tf.nn.convolution_11/convolution", "op": "Conv2D", "input": ["PartitionedCall/model_3/tf.math.multiply_36/Mul", "21845"], "device": "/device:CPU:0", "attr": {"padding": {"s": "U0FNRQ=="}, "dilations": {"list": {"i": ["1", "1", "1", "1"]}}, "explicit_paddings": {"list": {}}, "data_format": {"s": "TkhXQw=="}, "use_cudnn_on_gpu": {"b": true}, "strides": {"list": {"i": ["1", "1", "1", "1"]}}, "T": {"type": "DT_FLOAT"}}}, {"name": "PartitionedCall/model_3/tf.math.add_13/Add", "op": "AddV2", "input": ["PartitionedCall/model_3/tf.nn.convolution_11/convolution", "21847"], "attr": {"T": {"type": "DT_FLOAT"}}}, {"name": "PartitionedCall/model_3/tf.math.sigmoid_11/Sigmoid", "op": "Sigmoid", "input": ["PartitionedCall/model_3/tf.math.add_13/Add"], "attr": {"T": {"type": "DT_FLOAT"}}}, {"name": "PartitionedCall/model_3/tf.math.multiply_39/Mul", "op": "Mul", "input": ["PartitionedCall/model_3/tf.math.add_13/Add", "PartitionedCall/model_3/tf.math.sigmoid_11/Sigmoid"], "attr": {"T": {"type": "DT_FLOAT"}}}, {"name": "PartitionedCall/model_3/tf.math.add_14/Add", "op": "AddV2", "input": ["PartitionedCall/model_3/tf.math.add_11/Add", "PartitionedCall/model_3/tf.math.multiply_39/Mul"], "attr": {"T": {"type": "DT_FLOAT"}}}, {"name": "PartitionedCall/model_3/tf.concat_1/concat", "op": "ConcatV2", "input": ["PartitionedCall/model_3/tf.strided_slice_2/StridedSlice", "PartitionedCall/model_3/tf.strided_slice_3/StridedSlice", "PartitionedCall/model_3/tf.math.add_11/Add", "PartitionedCall/model_3/tf.math.add_14/Add", "PartitionedCall/model_3/tf.concat_1/concat/axis"], "attr": {"T": {"type": "DT_FLOAT"}, "Tidx": {"type": "DT_INT32"}, "N": {"i": "4"}}}, {"name": "PartitionedCall/model_3/tf.nn.convolution_12/convolution", "op": "Conv2D", "input": ["PartitionedCall/model_3/tf.concat_1/concat", "21853"], "device": "/device:CPU:0", "attr": {"dilations": {"list": {"i": ["1", "1", "1", "1"]}}, "padding": {"s": "U0FNRQ=="}, "strides": {"list": {"i": ["1", "1", "1", "1"]}}, "explicit_paddings": {"list": {}}, "use_cudnn_on_gpu": {"b": true}, "T": {"type": "DT_FLOAT"}, "data_format": {"s": "TkhXQw=="}}}, {"name": "PartitionedCall/model_3/tf.math.add_15/Add", "op": "AddV2", "input": ["PartitionedCall/model_3/tf.nn.convolution_12/convolution", "21855"], "attr": {"T": {"type": "DT_FLOAT"}}}, {"name": "PartitionedCall/model_3/tf.math.sigmoid_12/Sigmoid", "op": "Sigmoid", "input": ["PartitionedCall/model_3/tf.math.add_15/Add"], "attr": {"T": {"type": "DT_FLOAT"}}}, {"name": "PartitionedCall/model_3/tf.math.multiply_44/Mul", "op": "Mul", "input": ["PartitionedCall/model_3/tf.math.add_15/Add", "PartitionedCall/model_3/tf.math.sigmoid_12/Sigmoid"], "attr": {"T": {"type": "DT_FLOAT"}}}, {"name": "PartitionedCall/model_3/tf.compat.v1.pad_3/Pad", "op": "Pad", "input": ["PartitionedCall/model_3/tf.math.multiply_44/Mul", "21857"], "attr": {"Tpaddings": {"type": "DT_INT32"}, "T": {"type": "DT_FLOAT"}}}, {"name": "PartitionedCall/model_3/tf.nn.convolution_13/convolution", "op": "Conv2D", "input": ["PartitionedCall/model_3/tf.compat.v1.pad_3/Pad", "21859"], "device": "/device:CPU:0", "attr": {"data_format": {"s": "TkhXQw=="}, "T": {"type": "DT_FLOAT"}, "padding": {"s": "VkFMSUQ="}, "use_cudnn_on_gpu": {"b": true}, "strides": {"list": {"i": ["1", "2", "2", "1"]}}, "explicit_paddings": {"list": {}}, "dilations": {"list": {"i": ["1", "1", "1", "1"]}}}}, {"name": "PartitionedCall/model_3/tf.math.add_16/Add", "op": "AddV2", "input": ["PartitionedCall/model_3/tf.nn.convolution_13/convolution", "21861"], "attr": {"T": {"type": "DT_FLOAT"}}}, {"name": "PartitionedCall/model_3/tf.math.sigmoid_13/Sigmoid", "op": "Sigmoid", "input": ["PartitionedCall/model_3/tf.math.add_16/Add"], "attr": {"T": {"type": "DT_FLOAT"}}}, {"name": "PartitionedCall/model_3/tf.math.multiply_47/Mul", "op": "Mul", "input": ["PartitionedCall/model_3/tf.math.add_16/Add", "PartitionedCall/model_3/tf.math.sigmoid_13/Sigmoid"], "attr": {"T": {"type": "DT_FLOAT"}}}, {"name": "PartitionedCall/model_3/tf.nn.convolution_14/convolution", "op": "Conv2D", "input": ["PartitionedCall/model_3/tf.math.multiply_47/Mul", "21863"], "device": "/device:CPU:0", "attr": {"padding": {"s": "U0FNRQ=="}, "strides": {"list": {"i": ["1", "1", "1", "1"]}}, "T": {"type": "DT_FLOAT"}, "use_cudnn_on_gpu": {"b": true}, "dilations": {"list": {"i": ["1", "1", "1", "1"]}}, "explicit_paddings": {"list": {}}, "data_format": {"s": "TkhXQw=="}}}, {"name": "PartitionedCall/model_3/tf.math.add_17/Add", "op": "AddV2", "input": ["PartitionedCall/model_3/tf.nn.convolution_14/convolution", "21865"], "attr": {"T": {"type": "DT_FLOAT"}}}, {"name": "PartitionedCall/model_3/tf.math.sigmoid_14/Sigmoid", "op": "Sigmoid", "input": ["PartitionedCall/model_3/tf.math.add_17/Add"], "attr": {"T": {"type": "DT_FLOAT"}}}, {"name": "PartitionedCall/model_3/tf.math.multiply_50/Mul", "op": "Mul", "input": ["PartitionedCall/model_3/tf.math.add_17/Add", "PartitionedCall/model_3/tf.math.sigmoid_14/Sigmoid"], "attr": {"T": {"type": "DT_FLOAT"}}}, {"name": "PartitionedCall/model_3/tf.strided_slice_4/StridedSlice", "op": "StridedSlice", "input": ["PartitionedCall/model_3/tf.math.multiply_50/Mul", "21887", "21889", "PartitionedCall/model_3/tf.strided_slice_4/ones_like"], "attr": {"ellipsis_mask": {"i": "0"}, "new_axis_mask": {"i": "0"}, "shrink_axis_mask": {"i": "0"}, "end_mask": {"i": "7"}, "T": {"type": "DT_FLOAT"}, "begin_mask": {"i": "15"}, "Index": {"type": "DT_INT64"}}}, {"name": "PartitionedCall/model_3/tf.strided_slice_5/StridedSlice", "op": "StridedSlice", "input": ["PartitionedCall/model_3/tf.math.multiply_50/Mul", "21867", "21869", "PartitionedCall/model_3/tf.strided_slice_5/ones_like"], "attr": {"ellipsis_mask": {"i": "0"}, "shrink_axis_mask": {"i": "0"}, "new_axis_mask": {"i": "0"}, "end_mask": {"i": "7"}, "T": {"type": "DT_FLOAT"}, "begin_mask": {"i": "7"}, "Index": {"type": "DT_INT64"}}}, {"name": "PartitionedCall/model_3/tf.nn.convolution_15/convolution", "op": "Conv2D", "input": ["PartitionedCall/model_3/tf.strided_slice_5/StridedSlice", "21871"], "device": "/device:CPU:0", "attr": {"dilations": {"list": {"i": ["1", "1", "1", "1"]}}, "strides": {"list": {"i": ["1", "1", "1", "1"]}}, "explicit_paddings": {"list": {}}, "data_format": {"s": "TkhXQw=="}, "T": {"type": "DT_FLOAT"}, "use_cudnn_on_gpu": {"b": true}, "padding": {"s": "U0FNRQ=="}}}, {"name": "PartitionedCall/model_3/tf.math.add_18/Add", "op": "AddV2", "input": ["PartitionedCall/model_3/tf.nn.convolution_15/convolution", "21873"], "attr": {"T": {"type": "DT_FLOAT"}}}, {"name": "PartitionedCall/model_3/tf.math.sigmoid_15/Sigmoid", "op": "Sigmoid", "input": ["PartitionedCall/model_3/tf.math.add_18/Add"], "attr": {"T": {"type": "DT_FLOAT"}}}, {"name": "PartitionedCall/model_3/tf.math.multiply_53/Mul", "op": "Mul", "input": ["PartitionedCall/model_3/tf.math.add_18/Add", "PartitionedCall/model_3/tf.math.sigmoid_15/Sigmoid"], "attr": {"T": {"type": "DT_FLOAT"}}}, {"name": "PartitionedCall/model_3/tf.nn.convolution_16/convolution", "op": "Conv2D", "input": ["PartitionedCall/model_3/tf.math.multiply_53/Mul", "21875"], "device": "/device:CPU:0", "attr": {"dilations": {"list": {"i": ["1", "1", "1", "1"]}}, "T": {"type": "DT_FLOAT"}, "strides": {"list": {"i": ["1", "1", "1", "1"]}}, "use_cudnn_on_gpu": {"b": true}, "padding": {"s": "U0FNRQ=="}, "explicit_paddings": {"list": {}}, "data_format": {"s": "TkhXQw=="}}}, {"name": "PartitionedCall/model_3/tf.math.add_19/Add", "op": "AddV2", "input": ["PartitionedCall/model_3/tf.nn.convolution_16/convolution", "21877"], "attr": {"T": {"type": "DT_FLOAT"}}}, {"name": "PartitionedCall/model_3/tf.math.sigmoid_16/Sigmoid", "op": "Sigmoid", "input": ["PartitionedCall/model_3/tf.math.add_19/Add"], "attr": {"T": {"type": "DT_FLOAT"}}}, {"name": "PartitionedCall/model_3/tf.math.multiply_56/Mul", "op": "Mul", "input": ["PartitionedCall/model_3/tf.math.add_19/Add", "PartitionedCall/model_3/tf.math.sigmoid_16/Sigmoid"], "attr": {"T": {"type": "DT_FLOAT"}}}, {"name": "PartitionedCall/model_3/tf.math.add_20/Add", "op": "AddV2", "input": ["PartitionedCall/model_3/tf.strided_slice_5/StridedSlice", "PartitionedCall/model_3/tf.math.multiply_56/Mul"], "attr": {"T": {"type": "DT_FLOAT"}}}, {"name": "PartitionedCall/model_3/tf.nn.convolution_17/convolution", "op": "Conv2D", "input": ["PartitionedCall/model_3/tf.math.add_20/Add", "21879"], "device": "/device:CPU:0", "attr": {"strides": {"list": {"i": ["1", "1", "1", "1"]}}, "use_cudnn_on_gpu": {"b": true}, "T": {"type": "DT_FLOAT"}, "padding": {"s": "U0FNRQ=="}, "data_format": {"s": "TkhXQw=="}, "dilations": {"list": {"i": ["1", "1", "1", "1"]}}, "explicit_paddings": {"list": {}}}}, {"name": "PartitionedCall/model_3/tf.math.add_21/Add", "op": "AddV2", "input": ["PartitionedCall/model_3/tf.nn.convolution_17/convolution", "21881"], "attr": {"T": {"type": "DT_FLOAT"}}}, {"name": "PartitionedCall/model_3/tf.math.sigmoid_17/Sigmoid", "op": "Sigmoid", "input": ["PartitionedCall/model_3/tf.math.add_21/Add"], "attr": {"T": {"type": "DT_FLOAT"}}}, {"name": "PartitionedCall/model_3/tf.math.multiply_61/Mul", "op": "Mul", "input": ["PartitionedCall/model_3/tf.math.add_21/Add", "PartitionedCall/model_3/tf.math.sigmoid_17/Sigmoid"], "attr": {"T": {"type": "DT_FLOAT"}}}, {"name": "PartitionedCall/model_3/tf.nn.convolution_18/convolution", "op": "Conv2D", "input": ["PartitionedCall/model_3/tf.math.multiply_61/Mul", "21883"], "device": "/device:CPU:0", "attr": {"use_cudnn_on_gpu": {"b": true}, "padding": {"s": "U0FNRQ=="}, "data_format": {"s": "TkhXQw=="}, "dilations": {"list": {"i": ["1", "1", "1", "1"]}}, "explicit_paddings": {"list": {}}, "T": {"type": "DT_FLOAT"}, "strides": {"list": {"i": ["1", "1", "1", "1"]}}}}, {"name": "PartitionedCall/model_3/tf.math.add_22/Add", "op": "AddV2", "input": ["PartitionedCall/model_3/tf.nn.convolution_18/convolution", "21885"], "attr": {"T": {"type": "DT_FLOAT"}}}, {"name": "PartitionedCall/model_3/tf.math.sigmoid_18/Sigmoid", "op": "Sigmoid", "input": ["PartitionedCall/model_3/tf.math.add_22/Add"], "attr": {"T": {"type": "DT_FLOAT"}}}, {"name": "PartitionedCall/model_3/tf.math.multiply_64/Mul", "op": "Mul", "input": ["PartitionedCall/model_3/tf.math.add_22/Add", "PartitionedCall/model_3/tf.math.sigmoid_18/Sigmoid"], "attr": {"T": {"type": "DT_FLOAT"}}}, {"name": "PartitionedCall/model_3/tf.math.add_23/Add", "op": "AddV2", "input": ["PartitionedCall/model_3/tf.math.add_20/Add", "PartitionedCall/model_3/tf.math.multiply_64/Mul"], "attr": {"T": {"type": "DT_FLOAT"}}}, {"name": "PartitionedCall/model_3/tf.concat_2/concat", "op": "ConcatV2", "input": ["PartitionedCall/model_3/tf.strided_slice_4/StridedSlice", "PartitionedCall/model_3/tf.strided_slice_5/StridedSlice", "PartitionedCall/model_3/tf.math.add_20/Add", "PartitionedCall/model_3/tf.math.add_23/Add", "PartitionedCall/model_3/tf.concat_2/concat/axis"], "attr": {"Tidx": {"type": "DT_INT32"}, "N": {"i": "4"}, "T": {"type": "DT_FLOAT"}}}, {"name": "PartitionedCall/model_3/tf.nn.convolution_19/convolution", "op": "Conv2D", "input": ["PartitionedCall/model_3/tf.concat_2/concat", "21891"], "device": "/device:CPU:0", "attr": {"data_format": {"s": "TkhXQw=="}, "dilations": {"list": {"i": ["1", "1", "1", "1"]}}, "T": {"type": "DT_FLOAT"}, "padding": {"s": "U0FNRQ=="}, "use_cudnn_on_gpu": {"b": true}, "strides": {"list": {"i": ["1", "1", "1", "1"]}}, "explicit_paddings": {"list": {}}}}, {"name": "PartitionedCall/model_3/tf.math.add_24/Add", "op": "AddV2", "input": ["PartitionedCall/model_3/tf.nn.convolution_19/convolution", "21893"], "attr": {"T": {"type": "DT_FLOAT"}}}, {"name": "PartitionedCall/model_3/tf.math.sigmoid_19/Sigmoid", "op": "Sigmoid", "input": ["PartitionedCall/model_3/tf.math.add_24/Add"], "attr": {"T": {"type": "DT_FLOAT"}}}, {"name": "PartitionedCall/model_3/tf.math.multiply_69/Mul", "op": "Mul", "input": ["PartitionedCall/model_3/tf.math.add_24/Add", "PartitionedCall/model_3/tf.math.sigmoid_19/Sigmoid"], "attr": {"T": {"type": "DT_FLOAT"}}}, {"name": "PartitionedCall/model_3/tf.compat.v1.pad_4/Pad", "op": "Pad", "input": ["PartitionedCall/model_3/tf.math.multiply_69/Mul", "21895"], "attr": {"Tpaddings": {"type": "DT_INT32"}, "T": {"type": "DT_FLOAT"}}}, {"name": "PartitionedCall/model_3/tf.nn.convolution_20/convolution", "op": "Conv2D", "input": ["PartitionedCall/model_3/tf.compat.v1.pad_4/Pad", "21897"], "device": "/device:CPU:0", "attr": {"dilations": {"list": {"i": ["1", "1", "1", "1"]}}, "explicit_paddings": {"list": {}}, "data_format": {"s": "TkhXQw=="}, "T": {"type": "DT_FLOAT"}, "use_cudnn_on_gpu": {"b": true}, "strides": {"list": {"i": ["1", "2", "2", "1"]}}, "padding": {"s": "VkFMSUQ="}}}, {"name": "PartitionedCall/model_3/tf.math.add_25/Add", "op": "AddV2", "input": ["PartitionedCall/model_3/tf.nn.convolution_20/convolution", "21899"], "attr": {"T": {"type": "DT_FLOAT"}}}, {"name": "PartitionedCall/model_3/tf.math.sigmoid_20/Sigmoid", "op": "Sigmoid", "input": ["PartitionedCall/model_3/tf.math.add_25/Add"], "attr": {"T": {"type": "DT_FLOAT"}}}, {"name": "PartitionedCall/model_3/tf.math.multiply_72/Mul", "op": "Mul", "input": ["PartitionedCall/model_3/tf.math.add_25/Add", "PartitionedCall/model_3/tf.math.sigmoid_20/Sigmoid"], "attr": {"T": {"type": "DT_FLOAT"}}}, {"name": "PartitionedCall/model_3/tf.nn.convolution_21/convolution", "op": "Conv2D", "input": ["PartitionedCall/model_3/tf.math.multiply_72/Mul", "21901"], "device": "/device:CPU:0", "attr": {"T": {"type": "DT_FLOAT"}, "strides": {"list": {"i": ["1", "1", "1", "1"]}}, "data_format": {"s": "TkhXQw=="}, "dilations": {"list": {"i": ["1", "1", "1", "1"]}}, "explicit_paddings": {"list": {}}, "padding": {"s": "U0FNRQ=="}, "use_cudnn_on_gpu": {"b": true}}}, {"name": "PartitionedCall/model_3/tf.math.add_26/Add", "op": "AddV2", "input": ["PartitionedCall/model_3/tf.nn.convolution_21/convolution", "21903"], "attr": {"T": {"type": "DT_FLOAT"}}}, {"name": "PartitionedCall/model_3/tf.math.sigmoid_21/Sigmoid", "op": "Sigmoid", "input": ["PartitionedCall/model_3/tf.math.add_26/Add"], "attr": {"T": {"type": "DT_FLOAT"}}}, {"name": "PartitionedCall/model_3/tf.math.multiply_75/Mul", "op": "Mul", "input": ["PartitionedCall/model_3/tf.math.add_26/Add", "PartitionedCall/model_3/tf.math.sigmoid_21/Sigmoid"], "attr": {"T": {"type": "DT_FLOAT"}}}, {"name": "PartitionedCall/model_3/tf.strided_slice_6/StridedSlice", "op": "StridedSlice", "input": ["PartitionedCall/model_3/tf.math.multiply_75/Mul", "21917", "21919", "PartitionedCall/model_3/tf.strided_slice_6/ones_like"], "attr": {"shrink_axis_mask": {"i": "0"}, "begin_mask": {"i": "15"}, "end_mask": {"i": "7"}, "Index": {"type": "DT_INT64"}, "T": {"type": "DT_FLOAT"}, "ellipsis_mask": {"i": "0"}, "new_axis_mask": {"i": "0"}}}, {"name": "PartitionedCall/model_3/tf.strided_slice_7/StridedSlice", "op": "StridedSlice", "input": ["PartitionedCall/model_3/tf.math.multiply_75/Mul", "21905", "21907", "PartitionedCall/model_3/tf.strided_slice_7/ones_like"], "attr": {"new_axis_mask": {"i": "0"}, "ellipsis_mask": {"i": "0"}, "shrink_axis_mask": {"i": "0"}, "Index": {"type": "DT_INT64"}, "T": {"type": "DT_FLOAT"}, "begin_mask": {"i": "7"}, "end_mask": {"i": "7"}}}, {"name": "PartitionedCall/model_3/tf.nn.convolution_22/convolution", "op": "Conv2D", "input": ["PartitionedCall/model_3/tf.strided_slice_7/StridedSlice", "21909"], "device": "/device:CPU:0", "attr": {"padding": {"s": "U0FNRQ=="}, "explicit_paddings": {"list": {}}, "dilations": {"list": {"i": ["1", "1", "1", "1"]}}, "data_format": {"s": "TkhXQw=="}, "strides": {"list": {"i": ["1", "1", "1", "1"]}}, "T": {"type": "DT_FLOAT"}, "use_cudnn_on_gpu": {"b": true}}}, {"name": "PartitionedCall/model_3/tf.math.add_27/Add", "op": "AddV2", "input": ["PartitionedCall/model_3/tf.nn.convolution_22/convolution", "21911"], "attr": {"T": {"type": "DT_FLOAT"}}}, {"name": "PartitionedCall/model_3/tf.math.sigmoid_22/Sigmoid", "op": "Sigmoid", "input": ["PartitionedCall/model_3/tf.math.add_27/Add"], "attr": {"T": {"type": "DT_FLOAT"}}}, {"name": "PartitionedCall/model_3/tf.math.multiply_78/Mul", "op": "Mul", "input": ["PartitionedCall/model_3/tf.math.add_27/Add", "PartitionedCall/model_3/tf.math.sigmoid_22/Sigmoid"], "attr": {"T": {"type": "DT_FLOAT"}}}, {"name": "PartitionedCall/model_3/tf.nn.convolution_23/convolution", "op": "Conv2D", "input": ["PartitionedCall/model_3/tf.math.multiply_78/Mul", "21913"], "device": "/device:CPU:0", "attr": {"explicit_paddings": {"list": {}}, "strides": {"list": {"i": ["1", "1", "1", "1"]}}, "padding": {"s": "U0FNRQ=="}, "use_cudnn_on_gpu": {"b": true}, "T": {"type": "DT_FLOAT"}, "dilations": {"list": {"i": ["1", "1", "1", "1"]}}, "data_format": {"s": "TkhXQw=="}}}, {"name": "PartitionedCall/model_3/tf.math.add_28/Add", "op": "AddV2", "input": ["PartitionedCall/model_3/tf.nn.convolution_23/convolution", "21915"], "attr": {"T": {"type": "DT_FLOAT"}}}, {"name": "PartitionedCall/model_3/tf.math.sigmoid_23/Sigmoid", "op": "Sigmoid", "input": ["PartitionedCall/model_3/tf.math.add_28/Add"], "attr": {"T": {"type": "DT_FLOAT"}}}, {"name": "PartitionedCall/model_3/tf.math.multiply_81/Mul", "op": "Mul", "input": ["PartitionedCall/model_3/tf.math.add_28/Add", "PartitionedCall/model_3/tf.math.sigmoid_23/Sigmoid"], "attr": {"T": {"type": "DT_FLOAT"}}}, {"name": "PartitionedCall/model_3/tf.math.add_29/Add", "op": "AddV2", "input": ["PartitionedCall/model_3/tf.strided_slice_7/StridedSlice", "PartitionedCall/model_3/tf.math.multiply_81/Mul"], "attr": {"T": {"type": "DT_FLOAT"}}}, {"name": "PartitionedCall/model_3/tf.concat_3/concat", "op": "ConcatV2", "input": ["PartitionedCall/model_3/tf.strided_slice_6/StridedSlice", "PartitionedCall/model_3/tf.strided_slice_7/StridedSlice", "PartitionedCall/model_3/tf.math.add_29/Add", "PartitionedCall/model_3/tf.concat_3/concat/axis"], "attr": {"T": {"type": "DT_FLOAT"}, "Tidx": {"type": "DT_INT32"}, "N": {"i": "3"}}}, {"name": "PartitionedCall/model_3/tf.nn.convolution_24/convolution", "op": "Conv2D", "input": ["PartitionedCall/model_3/tf.concat_3/concat", "21921"], "device": "/device:CPU:0", "attr": {"strides": {"list": {"i": ["1", "1", "1", "1"]}}, "T": {"type": "DT_FLOAT"}, "use_cudnn_on_gpu": {"b": true}, "padding": {"s": "U0FNRQ=="}, "data_format": {"s": "TkhXQw=="}, "dilations": {"list": {"i": ["1", "1", "1", "1"]}}, "explicit_paddings": {"list": {}}}}, {"name": "PartitionedCall/model_3/tf.math.add_30/Add", "op": "AddV2", "input": ["PartitionedCall/model_3/tf.nn.convolution_24/convolution", "21923"], "attr": {"T": {"type": "DT_FLOAT"}}}, {"name": "PartitionedCall/model_3/tf.math.sigmoid_24/Sigmoid", "op": "Sigmoid", "input": ["PartitionedCall/model_3/tf.math.add_30/Add"], "attr": {"T": {"type": "DT_FLOAT"}}}, {"name": "PartitionedCall/model_3/tf.math.multiply_86/Mul", "op": "Mul", "input": ["PartitionedCall/model_3/tf.math.add_30/Add", "PartitionedCall/model_3/tf.math.sigmoid_24/Sigmoid"], "attr": {"T": {"type": "DT_FLOAT"}}}, {"name": "PartitionedCall/model_3/tf.nn.convolution_25/convolution", "op": "Conv2D", "input": ["PartitionedCall/model_3/tf.math.multiply_86/Mul", "21925"], "device": "/device:CPU:0", "attr": {"data_format": {"s": "TkhXQw=="}, "strides": {"list": {"i": ["1", "1", "1", "1"]}}, "T": {"type": "DT_FLOAT"}, "explicit_paddings": {"list": {}}, "padding": {"s": "U0FNRQ=="}, "use_cudnn_on_gpu": {"b": true}, "dilations": {"list": {"i": ["1", "1", "1", "1"]}}}}, {"name": "PartitionedCall/model_3/tf.math.add_31/Add", "op": "AddV2", "input": ["PartitionedCall/model_3/tf.nn.convolution_25/convolution", "21927"], "attr": {"T": {"type": "DT_FLOAT"}}}, {"name": "PartitionedCall/model_3/tf.math.sigmoid_25/Sigmoid", "op": "Sigmoid", "input": ["PartitionedCall/model_3/tf.math.add_31/Add"], "attr": {"T": {"type": "DT_FLOAT"}}}, {"name": "PartitionedCall/model_3/tf.math.multiply_89/Mul", "op": "Mul", "input": ["PartitionedCall/model_3/tf.math.add_31/Add", "PartitionedCall/model_3/tf.math.sigmoid_25/Sigmoid"], "attr": {"T": {"type": "DT_FLOAT"}}}, {"name": "PartitionedCall/model_3/tf.compat.v1.nn.pool/max_pool", "op": "MaxPool", "input": ["PartitionedCall/model_3/tf.math.multiply_89/Mul"], "attr": {"data_format": {"s": "TkhXQw=="}, "padding": {"s": "U0FNRQ=="}, "strides": {"list": {"i": ["1", "1", "1", "1"]}}, "explicit_paddings": {"list": {}}, "ksize": {"list": {"i": ["1", "5", "5", "1"]}}, "T": {"type": "DT_FLOAT"}}}, {"name": "PartitionedCall/model_3/tf.compat.v1.nn.pool_1/max_pool", "op": "MaxPool", "input": ["PartitionedCall/model_3/tf.compat.v1.nn.pool/max_pool"], "attr": {"explicit_paddings": {"list": {}}, "data_format": {"s": "TkhXQw=="}, "T": {"type": "DT_FLOAT"}, "padding": {"s": "U0FNRQ=="}, "strides": {"list": {"i": ["1", "1", "1", "1"]}}, "ksize": {"list": {"i": ["1", "5", "5", "1"]}}}}, {"name": "PartitionedCall/model_3/tf.compat.v1.nn.pool_2/max_pool", "op": "MaxPool", "input": ["PartitionedCall/model_3/tf.compat.v1.nn.pool_1/max_pool"], "attr": {"T": {"type": "DT_FLOAT"}, "padding": {"s": "U0FNRQ=="}, "data_format": {"s": "TkhXQw=="}, "strides": {"list": {"i": ["1", "1", "1", "1"]}}, "explicit_paddings": {"list": {}}, "ksize": {"list": {"i": ["1", "5", "5", "1"]}}}}, {"name": "PartitionedCall/model_3/tf.concat_4/concat", "op": "ConcatV2", "input": ["PartitionedCall/model_3/tf.math.multiply_89/Mul", "PartitionedCall/model_3/tf.compat.v1.nn.pool/max_pool", "PartitionedCall/model_3/tf.compat.v1.nn.pool_1/max_pool", "PartitionedCall/model_3/tf.compat.v1.nn.pool_2/max_pool", "PartitionedCall/model_3/tf.concat_4/concat/axis"], "attr": {"N": {"i": "4"}, "T": {"type": "DT_FLOAT"}, "Tidx": {"type": "DT_INT32"}}}, {"name": "PartitionedCall/model_3/tf.nn.convolution_26/convolution", "op": "Conv2D", "input": ["PartitionedCall/model_3/tf.concat_4/concat", "21929"], "device": "/device:CPU:0", "attr": {"strides": {"list": {"i": ["1", "1", "1", "1"]}}, "padding": {"s": "U0FNRQ=="}, "use_cudnn_on_gpu": {"b": true}, "dilations": {"list": {"i": ["1", "1", "1", "1"]}}, "T": {"type": "DT_FLOAT"}, "data_format": {"s": "TkhXQw=="}, "explicit_paddings": {"list": {}}}}, {"name": "PartitionedCall/model_3/tf.math.add_32/Add", "op": "AddV2", "input": ["PartitionedCall/model_3/tf.nn.convolution_26/convolution", "21931"], "attr": {"T": {"type": "DT_FLOAT"}}}, {"name": "PartitionedCall/model_3/tf.math.sigmoid_26/Sigmoid", "op": "Sigmoid", "input": ["PartitionedCall/model_3/tf.math.add_32/Add"], "attr": {"T": {"type": "DT_FLOAT"}}}, {"name": "PartitionedCall/model_3/tf.math.multiply_92/Mul", "op": "Mul", "input": ["PartitionedCall/model_3/tf.math.add_32/Add", "PartitionedCall/model_3/tf.math.sigmoid_26/Sigmoid"], "attr": {"T": {"type": "DT_FLOAT"}}}, {"name": "PartitionedCall/model_3/lambda//model.10/Resize", "op": "ResizeNearestNeighbor", "input": ["PartitionedCall/model_3/tf.math.multiply_92/Mul", "PartitionedCall/model_3/lambda//model.10/Resize/size"], "attr": {"half_pixel_centers": {"b": false}, "T": {"type": "DT_FLOAT"}, "align_corners": {"b": false}}}, {"name": "PartitionedCall/model_3/tf.concat_5/concat", "op": "ConcatV2", "input": ["PartitionedCall/model_3/lambda//model.10/Resize", "PartitionedCall/model_3/tf.math.multiply_69/Mul", "PartitionedCall/model_3/tf.concat_5/concat/axis"], "attr": {"N": {"i": "2"}, "Tidx": {"type": "DT_INT32"}, "T": {"type": "DT_FLOAT"}}}, {"name": "PartitionedCall/model_3/tf.nn.convolution_27/convolution", "op": "Conv2D", "input": ["PartitionedCall/model_3/tf.concat_5/concat", "21933"], "device": "/device:CPU:0", "attr": {"data_format": {"s": "TkhXQw=="}, "dilations": {"list": {"i": ["1", "1", "1", "1"]}}, "explicit_paddings": {"list": {}}, "strides": {"list": {"i": ["1", "1", "1", "1"]}}, "use_cudnn_on_gpu": {"b": true}, "padding": {"s": "U0FNRQ=="}, "T": {"type": "DT_FLOAT"}}}, {"name": "PartitionedCall/model_3/tf.math.add_33/Add", "op": "AddV2", "input": ["PartitionedCall/model_3/tf.nn.convolution_27/convolution", "21935"], "attr": {"T": {"type": "DT_FLOAT"}}}, {"name": "PartitionedCall/model_3/tf.math.sigmoid_27/Sigmoid", "op": "Sigmoid", "input": ["PartitionedCall/model_3/tf.math.add_33/Add"], "attr": {"T": {"type": "DT_FLOAT"}}}, {"name": "PartitionedCall/model_3/tf.math.multiply_95/Mul", "op": "Mul", "input": ["PartitionedCall/model_3/tf.math.add_33/Add", "PartitionedCall/model_3/tf.math.sigmoid_27/Sigmoid"], "attr": {"T": {"type": "DT_FLOAT"}}}, {"name": "PartitionedCall/model_3/tf.strided_slice_8/StridedSlice", "op": "StridedSlice", "input": ["PartitionedCall/model_3/tf.math.multiply_95/Mul", "21949", "21951", "PartitionedCall/model_3/tf.strided_slice_8/ones_like"], "attr": {"shrink_axis_mask": {"i": "0"}, "begin_mask": {"i": "15"}, "end_mask": {"i": "7"}, "new_axis_mask": {"i": "0"}, "Index": {"type": "DT_INT64"}, "T": {"type": "DT_FLOAT"}, "ellipsis_mask": {"i": "0"}}}, {"name": "PartitionedCall/model_3/tf.strided_slice_9/StridedSlice", "op": "StridedSlice", "input": ["PartitionedCall/model_3/tf.math.multiply_95/Mul", "21937", "21939", "PartitionedCall/model_3/tf.strided_slice_9/ones_like"], "attr": {"end_mask": {"i": "7"}, "Index": {"type": "DT_INT64"}, "begin_mask": {"i": "7"}, "shrink_axis_mask": {"i": "0"}, "new_axis_mask": {"i": "0"}, "T": {"type": "DT_FLOAT"}, "ellipsis_mask": {"i": "0"}}}, {"name": "PartitionedCall/model_3/tf.nn.convolution_28/convolution", "op": "Conv2D", "input": ["PartitionedCall/model_3/tf.strided_slice_9/StridedSlice", "21941"], "device": "/device:CPU:0", "attr": {"dilations": {"list": {"i": ["1", "1", "1", "1"]}}, "data_format": {"s": "TkhXQw=="}, "T": {"type": "DT_FLOAT"}, "padding": {"s": "U0FNRQ=="}, "strides": {"list": {"i": ["1", "1", "1", "1"]}}, "explicit_paddings": {"list": {}}, "use_cudnn_on_gpu": {"b": true}}}, {"name": "PartitionedCall/model_3/tf.math.add_34/Add", "op": "AddV2", "input": ["PartitionedCall/model_3/tf.nn.convolution_28/convolution", "21943"], "attr": {"T": {"type": "DT_FLOAT"}}}, {"name": "PartitionedCall/model_3/tf.math.sigmoid_28/Sigmoid", "op": "Sigmoid", "input": ["PartitionedCall/model_3/tf.math.add_34/Add"], "attr": {"T": {"type": "DT_FLOAT"}}}, {"name": "PartitionedCall/model_3/tf.math.multiply_98/Mul", "op": "Mul", "input": ["PartitionedCall/model_3/tf.math.add_34/Add", "PartitionedCall/model_3/tf.math.sigmoid_28/Sigmoid"], "attr": {"T": {"type": "DT_FLOAT"}}}, {"name": "PartitionedCall/model_3/tf.nn.convolution_29/convolution", "op": "Conv2D", "input": ["PartitionedCall/model_3/tf.math.multiply_98/Mul", "21945"], "device": "/device:CPU:0", "attr": {"use_cudnn_on_gpu": {"b": true}, "strides": {"list": {"i": ["1", "1", "1", "1"]}}, "dilations": {"list": {"i": ["1", "1", "1", "1"]}}, "data_format": {"s": "TkhXQw=="}, "T": {"type": "DT_FLOAT"}, "explicit_paddings": {"list": {}}, "padding": {"s": "U0FNRQ=="}}}, {"name": "PartitionedCall/model_3/tf.math.add_35/Add", "op": "AddV2", "input": ["PartitionedCall/model_3/tf.nn.convolution_29/convolution", "21947"], "attr": {"T": {"type": "DT_FLOAT"}}}, {"name": "PartitionedCall/model_3/tf.math.sigmoid_29/Sigmoid", "op": "Sigmoid", "input": ["PartitionedCall/model_3/tf.math.add_35/Add"], "attr": {"T": {"type": "DT_FLOAT"}}}, {"name": "PartitionedCall/model_3/tf.math.multiply_101/Mul", "op": "Mul", "input": ["PartitionedCall/model_3/tf.math.add_35/Add", "PartitionedCall/model_3/tf.math.sigmoid_29/Sigmoid"], "attr": {"T": {"type": "DT_FLOAT"}}}, {"name": "PartitionedCall/model_3/tf.concat_6/concat", "op": "ConcatV2", "input": ["PartitionedCall/model_3/tf.strided_slice_8/StridedSlice", "PartitionedCall/model_3/tf.strided_slice_9/StridedSlice", "PartitionedCall/model_3/tf.math.multiply_101/Mul", "PartitionedCall/model_3/tf.concat_6/concat/axis"], "attr": {"T": {"type": "DT_FLOAT"}, "N": {"i": "3"}, "Tidx": {"type": "DT_INT32"}}}, {"name": "PartitionedCall/model_3/tf.nn.convolution_30/convolution", "op": "Conv2D", "input": ["PartitionedCall/model_3/tf.concat_6/concat", "21953"], "device": "/device:CPU:0", "attr": {"dilations": {"list": {"i": ["1", "1", "1", "1"]}}, "strides": {"list": {"i": ["1", "1", "1", "1"]}}, "explicit_paddings": {"list": {}}, "data_format": {"s": "TkhXQw=="}, "use_cudnn_on_gpu": {"b": true}, "padding": {"s": "U0FNRQ=="}, "T": {"type": "DT_FLOAT"}}}, {"name": "PartitionedCall/model_3/tf.math.add_36/Add", "op": "AddV2", "input": ["PartitionedCall/model_3/tf.nn.convolution_30/convolution", "21955"], "attr": {"T": {"type": "DT_FLOAT"}}}, {"name": "PartitionedCall/model_3/tf.math.sigmoid_30/Sigmoid", "op": "Sigmoid", "input": ["PartitionedCall/model_3/tf.math.add_36/Add"], "attr": {"T": {"type": "DT_FLOAT"}}}, {"name": "PartitionedCall/model_3/tf.math.multiply_104/Mul", "op": "Mul", "input": ["PartitionedCall/model_3/tf.math.add_36/Add", "PartitionedCall/model_3/tf.math.sigmoid_30/Sigmoid"], "attr": {"T": {"type": "DT_FLOAT"}}}, {"name": "PartitionedCall/model_3/lambda_1//model.13/Resize", "op": "ResizeNearestNeighbor", "input": ["PartitionedCall/model_3/tf.math.multiply_104/Mul", "PartitionedCall/model_3/lambda_1//model.13/Resize/size"], "attr": {"align_corners": {"b": false}, "T": {"type": "DT_FLOAT"}, "half_pixel_centers": {"b": false}}}, {"name": "PartitionedCall/model_3/tf.concat_7/concat", "op": "ConcatV2", "input": ["PartitionedCall/model_3/lambda_1//model.13/Resize", "PartitionedCall/model_3/tf.math.multiply_44/Mul", "PartitionedCall/model_3/tf.concat_7/concat/axis"], "attr": {"N": {"i": "2"}, "Tidx": {"type": "DT_INT32"}, "T": {"type": "DT_FLOAT"}}}, {"name": "PartitionedCall/model_3/tf.nn.convolution_31/convolution", "op": "Conv2D", "input": ["PartitionedCall/model_3/tf.concat_7/concat", "21957"], "device": "/device:CPU:0", "attr": {"use_cudnn_on_gpu": {"b": true}, "padding": {"s": "U0FNRQ=="}, "strides": {"list": {"i": ["1", "1", "1", "1"]}}, "dilations": {"list": {"i": ["1", "1", "1", "1"]}}, "T": {"type": "DT_FLOAT"}, "data_format": {"s": "TkhXQw=="}, "explicit_paddings": {"list": {}}}}, {"name": "PartitionedCall/model_3/tf.math.add_37/Add", "op": "AddV2", "input": ["PartitionedCall/model_3/tf.nn.convolution_31/convolution", "21959"], "attr": {"T": {"type": "DT_FLOAT"}}}, {"name": "PartitionedCall/model_3/tf.math.sigmoid_31/Sigmoid", "op": "Sigmoid", "input": ["PartitionedCall/model_3/tf.math.add_37/Add"], "attr": {"T": {"type": "DT_FLOAT"}}}, {"name": "PartitionedCall/model_3/tf.math.multiply_107/Mul", "op": "Mul", "input": ["PartitionedCall/model_3/tf.math.add_37/Add", "PartitionedCall/model_3/tf.math.sigmoid_31/Sigmoid"], "attr": {"T": {"type": "DT_FLOAT"}}}, {"name": "PartitionedCall/model_3/tf.strided_slice_10/StridedSlice", "op": "StridedSlice", "input": ["PartitionedCall/model_3/tf.math.multiply_107/Mul", "21973", "21975", "PartitionedCall/model_3/tf.strided_slice_10/ones_like"], "attr": {"shrink_axis_mask": {"i": "0"}, "T": {"type": "DT_FLOAT"}, "new_axis_mask": {"i": "0"}, "ellipsis_mask": {"i": "0"}, "end_mask": {"i": "7"}, "Index": {"type": "DT_INT64"}, "begin_mask": {"i": "15"}}}, {"name": "PartitionedCall/model_3/tf.strided_slice_11/StridedSlice", "op": "StridedSlice", "input": ["PartitionedCall/model_3/tf.math.multiply_107/Mul", "21961", "21963", "PartitionedCall/model_3/tf.strided_slice_11/ones_like"], "attr": {"shrink_axis_mask": {"i": "0"}, "begin_mask": {"i": "7"}, "end_mask": {"i": "7"}, "new_axis_mask": {"i": "0"}, "Index": {"type": "DT_INT64"}, "T": {"type": "DT_FLOAT"}, "ellipsis_mask": {"i": "0"}}}, {"name": "PartitionedCall/model_3/tf.nn.convolution_32/convolution", "op": "Conv2D", "input": ["PartitionedCall/model_3/tf.strided_slice_11/StridedSlice", "21965"], "device": "/device:CPU:0", "attr": {"T": {"type": "DT_FLOAT"}, "use_cudnn_on_gpu": {"b": true}, "strides": {"list": {"i": ["1", "1", "1", "1"]}}, "padding": {"s": "U0FNRQ=="}, "dilations": {"list": {"i": ["1", "1", "1", "1"]}}, "explicit_paddings": {"list": {}}, "data_format": {"s": "TkhXQw=="}}}, {"name": "PartitionedCall/model_3/tf.math.add_38/Add", "op": "AddV2", "input": ["PartitionedCall/model_3/tf.nn.convolution_32/convolution", "21967"], "attr": {"T": {"type": "DT_FLOAT"}}}, {"name": "PartitionedCall/model_3/tf.math.sigmoid_32/Sigmoid", "op": "Sigmoid", "input": ["PartitionedCall/model_3/tf.math.add_38/Add"], "attr": {"T": {"type": "DT_FLOAT"}}}, {"name": "PartitionedCall/model_3/tf.math.multiply_110/Mul", "op": "Mul", "input": ["PartitionedCall/model_3/tf.math.add_38/Add", "PartitionedCall/model_3/tf.math.sigmoid_32/Sigmoid"], "attr": {"T": {"type": "DT_FLOAT"}}}, {"name": "PartitionedCall/model_3/tf.nn.convolution_33/convolution", "op": "Conv2D", "input": ["PartitionedCall/model_3/tf.math.multiply_110/Mul", "21969"], "device": "/device:CPU:0", "attr": {"T": {"type": "DT_FLOAT"}, "data_format": {"s": "TkhXQw=="}, "explicit_paddings": {"list": {}}, "padding": {"s": "U0FNRQ=="}, "use_cudnn_on_gpu": {"b": true}, "strides": {"list": {"i": ["1", "1", "1", "1"]}}, "dilations": {"list": {"i": ["1", "1", "1", "1"]}}}}, {"name": "PartitionedCall/model_3/tf.math.add_39/Add", "op": "AddV2", "input": ["PartitionedCall/model_3/tf.nn.convolution_33/convolution", "21971"], "attr": {"T": {"type": "DT_FLOAT"}}}, {"name": "PartitionedCall/model_3/tf.math.sigmoid_33/Sigmoid", "op": "Sigmoid", "input": ["PartitionedCall/model_3/tf.math.add_39/Add"], "attr": {"T": {"type": "DT_FLOAT"}}}, {"name": "PartitionedCall/model_3/tf.math.multiply_113/Mul", "op": "Mul", "input": ["PartitionedCall/model_3/tf.math.add_39/Add", "PartitionedCall/model_3/tf.math.sigmoid_33/Sigmoid"], "attr": {"T": {"type": "DT_FLOAT"}}}, {"name": "PartitionedCall/model_3/tf.concat_8/concat", "op": "ConcatV2", "input": ["PartitionedCall/model_3/tf.strided_slice_10/StridedSlice", "PartitionedCall/model_3/tf.strided_slice_11/StridedSlice", "PartitionedCall/model_3/tf.math.multiply_113/Mul", "PartitionedCall/model_3/tf.concat_8/concat/axis"], "attr": {"T": {"type": "DT_FLOAT"}, "N": {"i": "3"}, "Tidx": {"type": "DT_INT32"}}}, {"name": "PartitionedCall/model_3/tf.nn.convolution_34/convolution", "op": "Conv2D", "input": ["PartitionedCall/model_3/tf.concat_8/concat", "21977"], "device": "/device:CPU:0", "attr": {"use_cudnn_on_gpu": {"b": true}, "T": {"type": "DT_FLOAT"}, "dilations": {"list": {"i": ["1", "1", "1", "1"]}}, "data_format": {"s": "TkhXQw=="}, "padding": {"s": "U0FNRQ=="}, "explicit_paddings": {"list": {}}, "strides": {"list": {"i": ["1", "1", "1", "1"]}}}}, {"name": "PartitionedCall/model_3/tf.math.add_40/Add", "op": "AddV2", "input": ["PartitionedCall/model_3/tf.nn.convolution_34/convolution", "21979"], "attr": {"T": {"type": "DT_FLOAT"}}}, {"name": "PartitionedCall/model_3/tf.math.sigmoid_34/Sigmoid", "op": "Sigmoid", "input": ["PartitionedCall/model_3/tf.math.add_40/Add"], "attr": {"T": {"type": "DT_FLOAT"}}}, {"name": "PartitionedCall/model_3/tf.math.multiply_116/Mul", "op": "Mul", "input": ["PartitionedCall/model_3/tf.math.add_40/Add", "PartitionedCall/model_3/tf.math.sigmoid_34/Sigmoid"], "attr": {"T": {"type": "DT_FLOAT"}}}, {"name": "PartitionedCall/model_3/tf.nn.convolution_36/convolution", "op": "Conv2D", "input": ["PartitionedCall/model_3/tf.math.multiply_116/Mul", "22045"], "device": "/device:CPU:0", "attr": {"use_cudnn_on_gpu": {"b": true}, "strides": {"list": {"i": ["1", "1", "1", "1"]}}, "dilations": {"list": {"i": ["1", "1", "1", "1"]}}, "data_format": {"s": "TkhXQw=="}, "padding": {"s": "U0FNRQ=="}, "T": {"type": "DT_FLOAT"}, "explicit_paddings": {"list": {}}}}, {"name": "PartitionedCall/model_3/tf.nn.convolution_37/convolution", "op": "Conv2D", "input": ["PartitionedCall/model_3/tf.math.multiply_116/Mul", "22041"], "device": "/device:CPU:0", "attr": {"use_cudnn_on_gpu": {"b": true}, "T": {"type": "DT_FLOAT"}, "dilations": {"list": {"i": ["1", "1", "1", "1"]}}, "padding": {"s": "U0FNRQ=="}, "data_format": {"s": "TkhXQw=="}, "strides": {"list": {"i": ["1", "1", "1", "1"]}}, "explicit_paddings": {"list": {}}}}, {"name": "PartitionedCall/model_3/tf.compat.v1.pad_5/Pad", "op": "Pad", "input": ["PartitionedCall/model_3/tf.math.multiply_116/Mul", "21981"], "attr": {"Tpaddings": {"type": "DT_INT32"}, "T": {"type": "DT_FLOAT"}}}, {"name": "PartitionedCall/model_3/tf.math.add_42/Add", "op": "AddV2", "input": ["PartitionedCall/model_3/tf.nn.convolution_36/convolution", "22055"], "attr": {"T": {"type": "DT_FLOAT"}}}, {"name": "PartitionedCall/model_3/tf.math.add_43/Add", "op": "AddV2", "input": ["PartitionedCall/model_3/tf.nn.convolution_37/convolution", "22043"], "attr": {"T": {"type": "DT_FLOAT"}}}, {"name": "PartitionedCall/model_3/tf.nn.convolution_35/convolution", "op": "Conv2D", "input": ["PartitionedCall/model_3/tf.compat.v1.pad_5/Pad", "21983"], "device": "/device:CPU:0", "attr": {"T": {"type": "DT_FLOAT"}, "use_cudnn_on_gpu": {"b": true}, "dilations": {"list": {"i": ["1", "1", "1", "1"]}}, "data_format": {"s": "TkhXQw=="}, "padding": {"s": "VkFMSUQ="}, "strides": {"list": {"i": ["1", "2", "2", "1"]}}, "explicit_paddings": {"list": {}}}}, {"name": "PartitionedCall/model_3/tf.math.sigmoid_36/Sigmoid", "op": "Sigmoid", "input": ["PartitionedCall/model_3/tf.math.add_42/Add"], "attr": {"T": {"type": "DT_FLOAT"}}}, {"name": "PartitionedCall/model_3/tf.math.sigmoid_37/Sigmoid", "op": "Sigmoid", "input": ["PartitionedCall/model_3/tf.math.add_43/Add"], "attr": {"T": {"type": "DT_FLOAT"}}}, {"name": "PartitionedCall/model_3/tf.math.add_41/Add", "op": "AddV2", "input": ["PartitionedCall/model_3/tf.nn.convolution_35/convolution", "21985"], "attr": {"T": {"type": "DT_FLOAT"}}}, {"name": "PartitionedCall/model_3/tf.math.multiply_122/Mul", "op": "Mul", "input": ["PartitionedCall/model_3/tf.math.add_42/Add", "PartitionedCall/model_3/tf.math.sigmoid_36/Sigmoid"], "attr": {"T": {"type": "DT_FLOAT"}}}, {"name": "PartitionedCall/model_3/tf.math.multiply_125/Mul", "op": "Mul", "input": ["PartitionedCall/model_3/tf.math.add_43/Add", "PartitionedCall/model_3/tf.math.sigmoid_37/Sigmoid"], "attr": {"T": {"type": "DT_FLOAT"}}}, {"name": "PartitionedCall/model_3/tf.math.sigmoid_35/Sigmoid", "op": "Sigmoid", "input": ["PartitionedCall/model_3/tf.math.add_41/Add"], "attr": {"T": {"type": "DT_FLOAT"}}}, {"name": "PartitionedCall/model_3/tf.nn.convolution_38/convolution", "op": "Conv2D", "input": ["PartitionedCall/model_3/tf.math.multiply_122/Mul", "22069"], "device": "/device:CPU:0", "attr": {"use_cudnn_on_gpu": {"b": true}, "strides": {"list": {"i": ["1", "1", "1", "1"]}}, "dilations": {"list": {"i": ["1", "1", "1", "1"]}}, "padding": {"s": "U0FNRQ=="}, "T": {"type": "DT_FLOAT"}, "data_format": {"s": "TkhXQw=="}, "explicit_paddings": {"list": {}}}}, {"name": "PartitionedCall/model_3/tf.nn.convolution_40/convolution", "op": "Conv2D", "input": ["PartitionedCall/model_3/tf.math.multiply_125/Mul", "22065"], "device": "/device:CPU:0", "attr": {"explicit_paddings": {"list": {}}, "padding": {"s": "U0FNRQ=="}, "use_cudnn_on_gpu": {"b": true}, "dilations": {"list": {"i": ["1", "1", "1", "1"]}}, "T": {"type": "DT_FLOAT"}, "strides": {"list": {"i": ["1", "1", "1", "1"]}}, "data_format": {"s": "TkhXQw=="}}}, {"name": "PartitionedCall/model_3/tf.math.multiply_119/Mul", "op": "Mul", "input": ["PartitionedCall/model_3/tf.math.add_41/Add", "PartitionedCall/model_3/tf.math.sigmoid_35/Sigmoid"], "attr": {"T": {"type": "DT_FLOAT"}}}, {"name": "PartitionedCall/model_3/tf.math.add_44/Add", "op": "AddV2", "input": ["PartitionedCall/model_3/tf.nn.convolution_38/convolution", "22079"], "attr": {"T": {"type": "DT_FLOAT"}}}, {"name": "PartitionedCall/model_3/tf.math.add_46/Add", "op": "AddV2", "input": ["PartitionedCall/model_3/tf.nn.convolution_40/convolution", "22067"], "attr": {"T": {"type": "DT_FLOAT"}}}, {"name": "PartitionedCall/model_3/tf.concat_9/concat", "op": "ConcatV2", "input": ["PartitionedCall/model_3/tf.math.multiply_119/Mul", "PartitionedCall/model_3/tf.math.multiply_104/Mul", "PartitionedCall/model_3/tf.concat_9/concat/axis"], "attr": {"Tidx": {"type": "DT_INT32"}, "N": {"i": "2"}, "T": {"type": "DT_FLOAT"}}}, {"name": "PartitionedCall/model_3/tf.math.sigmoid_38/Sigmoid", "op": "Sigmoid", "input": ["PartitionedCall/model_3/tf.math.add_44/Add"], "attr": {"T": {"type": "DT_FLOAT"}}}, {"name": "PartitionedCall/model_3/tf.math.sigmoid_39/Sigmoid", "op": "Sigmoid", "input": ["PartitionedCall/model_3/tf.math.add_46/Add"], "attr": {"T": {"type": "DT_FLOAT"}}}, {"name": "PartitionedCall/model_3/tf.nn.convolution_41/convolution", "op": "Conv2D", "input": ["PartitionedCall/model_3/tf.concat_9/concat", "21987"], "device": "/device:CPU:0", "attr": {"dilations": {"list": {"i": ["1", "1", "1", "1"]}}, "data_format": {"s": "TkhXQw=="}, "T": {"type": "DT_FLOAT"}, "padding": {"s": "U0FNRQ=="}, "strides": {"list": {"i": ["1", "1", "1", "1"]}}, "explicit_paddings": {"list": {}}, "use_cudnn_on_gpu": {"b": true}}}, {"name": "PartitionedCall/model_3/tf.math.multiply_128/Mul", "op": "Mul", "input": ["PartitionedCall/model_3/tf.math.add_44/Add", "PartitionedCall/model_3/tf.math.sigmoid_38/Sigmoid"], "attr": {"T": {"type": "DT_FLOAT"}}}, {"name": "PartitionedCall/model_3/tf.math.multiply_131/Mul", "op": "Mul", "input": ["PartitionedCall/model_3/tf.math.add_46/Add", "PartitionedCall/model_3/tf.math.sigmoid_39/Sigmoid"], "attr": {"T": {"type": "DT_FLOAT"}}}, {"name": "PartitionedCall/model_3/tf.math.add_47/Add", "op": "AddV2", "input": ["PartitionedCall/model_3/tf.nn.convolution_41/convolution", "21989"], "attr": {"T": {"type": "DT_FLOAT"}}}, {"name": "PartitionedCall/model_3/tf.nn.convolution_42/convolution", "op": "Conv2D", "input": ["PartitionedCall/model_3/tf.math.multiply_128/Mul", "22091"], "device": "/device:CPU:0", "attr": {"strides": {"list": {"i": ["1", "1", "1", "1"]}}, "dilations": {"list": {"i": ["1", "1", "1", "1"]}}, "T": {"type": "DT_FLOAT"}, "data_format": {"s": "TkhXQw=="}, "explicit_paddings": {"list": {}}, "use_cudnn_on_gpu": {"b": true}, "padding": {"s": "U0FNRQ=="}}}, {"name": "PartitionedCall/model_3/tf.nn.convolution_44/convolution", "op": "Conv2D", "input": ["PartitionedCall/model_3/tf.math.multiply_131/Mul", "22089"], "device": "/device:CPU:0", "attr": {"use_cudnn_on_gpu": {"b": true}, "T": {"type": "DT_FLOAT"}, "dilations": {"list": {"i": ["1", "1", "1", "1"]}}, "data_format": {"s": "TkhXQw=="}, "strides": {"list": {"i": ["1", "1", "1", "1"]}}, "explicit_paddings": {"list": {}}, "padding": {"s": "U0FNRQ=="}}}, {"name": "PartitionedCall/model_3/tf.math.sigmoid_40/Sigmoid", "op": "Sigmoid", "input": ["PartitionedCall/model_3/tf.math.add_47/Add"], "attr": {"T": {"type": "DT_FLOAT"}}}, {"name": "PartitionedCall/model_3/tf.math.add_48/Add", "op": "AddV2", "input": ["PartitionedCall/model_3/tf.nn.convolution_42/convolution", "22103"], "attr": {"T": {"type": "DT_FLOAT"}}}, {"name": "PartitionedCall/model_3/tf.math.add_50/Add", "op": "AddV2", "input": ["PartitionedCall/model_3/tf.nn.convolution_44/convolution", "22101"], "attr": {"T": {"type": "DT_FLOAT"}}}, {"name": "PartitionedCall/model_3/tf.math.multiply_134/Mul", "op": "Mul", "input": ["PartitionedCall/model_3/tf.math.add_47/Add", "PartitionedCall/model_3/tf.math.sigmoid_40/Sigmoid"], "attr": {"T": {"type": "DT_FLOAT"}}}, {"name": "PartitionedCall/model_3/tf.concat_587/concat", "op": "ConcatV2", "input": ["PartitionedCall/model_3/tf.math.add_48/Add", "PartitionedCall/model_3/tf.math.add_50/Add", "PartitionedCall/model_3/tf.concat_587/concat/axis"], "attr": {"T": {"type": "DT_FLOAT"}, "Tidx": {"type": "DT_INT32"}, "N": {"i": "2"}}}, {"name": "PartitionedCall/model_3/tf.strided_slice_12/StridedSlice", "op": "StridedSlice", "input": ["PartitionedCall/model_3/tf.math.multiply_134/Mul", "22003", "22005", "PartitionedCall/model_3/tf.strided_slice_12/ones_like"], "attr": {"begin_mask": {"i": "15"}, "Index": {"type": "DT_INT64"}, "end_mask": {"i": "7"}, "new_axis_mask": {"i": "0"}, "T": {"type": "DT_FLOAT"}, "ellipsis_mask": {"i": "0"}, "shrink_axis_mask": {"i": "0"}}}, {"name": "PartitionedCall/model_3/tf.strided_slice_13/StridedSlice", "op": "StridedSlice", "input": ["PartitionedCall/model_3/tf.math.multiply_134/Mul", "21991", "21993", "PartitionedCall/model_3/tf.strided_slice_13/ones_like"], "attr": {"begin_mask": {"i": "7"}, "Index": {"type": "DT_INT64"}, "end_mask": {"i": "7"}, "ellipsis_mask": {"i": "0"}, "T": {"type": "DT_FLOAT"}, "new_axis_mask": {"i": "0"}, "shrink_axis_mask": {"i": "0"}}}, {"name": "PartitionedCall/model_3/tf.compat.v1.transpose_1156/transpose", "op": "Transpose", "input": ["PartitionedCall/model_3/tf.concat_587/concat", "PartitionedCall/model_3/tf.compat.v1.transpose_1156/transpose/perm"], "attr": {"T": {"type": "DT_FLOAT"}, "Tperm": {"type": "DT_INT32"}}}, {"name": "PartitionedCall/model_3/tf.nn.convolution_45/convolution", "op": "Conv2D", "input": ["PartitionedCall/model_3/tf.strided_slice_13/StridedSlice", "21995"], "device": "/device:CPU:0", "attr": {"data_format": {"s": "TkhXQw=="}, "explicit_paddings": {"list": {}}, "use_cudnn_on_gpu": {"b": true}, "padding": {"s": "U0FNRQ=="}, "T": {"type": "DT_FLOAT"}, "strides": {"list": {"i": ["1", "1", "1", "1"]}}, "dilations": {"list": {"i": ["1", "1", "1", "1"]}}}}, {"name": "PartitionedCall/model_3/tf.reshape/Reshape", "op": "Reshape", "input": ["PartitionedCall/model_3/tf.compat.v1.transpose_1156/transpose", "PartitionedCall/model_3/tf.reshape/Reshape/shape"], "attr": {"T": {"type": "DT_FLOAT"}, "Tshape": {"type": "DT_INT32"}}}, {"name": "PartitionedCall/model_3/tf.math.add_51/Add", "op": "AddV2", "input": ["PartitionedCall/model_3/tf.nn.convolution_45/convolution", "21997"], "attr": {"T": {"type": "DT_FLOAT"}}}, {"name": "PartitionedCall/model_3/tf.math.sigmoid_41/Sigmoid", "op": "Sigmoid", "input": ["PartitionedCall/model_3/tf.math.add_51/Add"], "attr": {"T": {"type": "DT_FLOAT"}}}, {"name": "PartitionedCall/model_3/tf.math.multiply_137/Mul", "op": "Mul", "input": ["PartitionedCall/model_3/tf.math.add_51/Add", "PartitionedCall/model_3/tf.math.sigmoid_41/Sigmoid"], "attr": {"T": {"type": "DT_FLOAT"}}}, {"name": "PartitionedCall/model_3/tf.nn.convolution_46/convolution", "op": "Conv2D", "input": ["PartitionedCall/model_3/tf.math.multiply_137/Mul", "21999"], "device": "/device:CPU:0", "attr": {"T": {"type": "DT_FLOAT"}, "strides": {"list": {"i": ["1", "1", "1", "1"]}}, "use_cudnn_on_gpu": {"b": true}, "dilations": {"list": {"i": ["1", "1", "1", "1"]}}, "padding": {"s": "U0FNRQ=="}, "data_format": {"s": "TkhXQw=="}, "explicit_paddings": {"list": {}}}}, {"name": "PartitionedCall/model_3/tf.math.add_52/Add", "op": "AddV2", "input": ["PartitionedCall/model_3/tf.nn.convolution_46/convolution", "22001"], "attr": {"T": {"type": "DT_FLOAT"}}}, {"name": "PartitionedCall/model_3/tf.math.sigmoid_42/Sigmoid", "op": "Sigmoid", "input": ["PartitionedCall/model_3/tf.math.add_52/Add"], "attr": {"T": {"type": "DT_FLOAT"}}}, {"name": "PartitionedCall/model_3/tf.math.multiply_140/Mul", "op": "Mul", "input": ["PartitionedCall/model_3/tf.math.add_52/Add", "PartitionedCall/model_3/tf.math.sigmoid_42/Sigmoid"], "attr": {"T": {"type": "DT_FLOAT"}}}, {"name": "PartitionedCall/model_3/tf.concat_588/concat", "op": "ConcatV2", "input": ["PartitionedCall/model_3/tf.strided_slice_12/StridedSlice", "PartitionedCall/model_3/tf.strided_slice_13/StridedSlice", "PartitionedCall/model_3/tf.math.multiply_140/Mul", "PartitionedCall/model_3/tf.concat_588/concat/axis"], "attr": {"N": {"i": "3"}, "Tidx": {"type": "DT_INT32"}, "T": {"type": "DT_FLOAT"}}}, {"name": "PartitionedCall/model_3/tf.nn.convolution_47/convolution", "op": "Conv2D", "input": ["PartitionedCall/model_3/tf.concat_588/concat", "22007"], "device": "/device:CPU:0", "attr": {"use_cudnn_on_gpu": {"b": true}, "strides": {"list": {"i": ["1", "1", "1", "1"]}}, "T": {"type": "DT_FLOAT"}, "dilations": {"list": {"i": ["1", "1", "1", "1"]}}, "padding": {"s": "U0FNRQ=="}, "data_format": {"s": "TkhXQw=="}, "explicit_paddings": {"list": {}}}}, {"name": "PartitionedCall/model_3/tf.math.add_53/Add", "op": "AddV2", "input": ["PartitionedCall/model_3/tf.nn.convolution_47/convolution", "22009"], "attr": {"T": {"type": "DT_FLOAT"}}}, {"name": "PartitionedCall/model_3/tf.math.sigmoid_43/Sigmoid", "op": "Sigmoid", "input": ["PartitionedCall/model_3/tf.math.add_53/Add"], "attr": {"T": {"type": "DT_FLOAT"}}}, {"name": "PartitionedCall/model_3/tf.math.multiply_143/Mul", "op": "Mul", "input": ["PartitionedCall/model_3/tf.math.add_53/Add", "PartitionedCall/model_3/tf.math.sigmoid_43/Sigmoid"], "attr": {"T": {"type": "DT_FLOAT"}}}, {"name": "PartitionedCall/model_3/tf.nn.convolution_49/convolution", "op": "Conv2D", "input": ["PartitionedCall/model_3/tf.math.multiply_143/Mul", "22053"], "device": "/device:CPU:0", "attr": {"dilations": {"list": {"i": ["1", "1", "1", "1"]}}, "data_format": {"s": "TkhXQw=="}, "strides": {"list": {"i": ["1", "1", "1", "1"]}}, "T": {"type": "DT_FLOAT"}, "explicit_paddings": {"list": {}}, "padding": {"s": "U0FNRQ=="}, "use_cudnn_on_gpu": {"b": true}}}, {"name": "PartitionedCall/model_3/tf.nn.convolution_50/convolution", "op": "Conv2D", "input": ["PartitionedCall/model_3/tf.math.multiply_143/Mul", "22051"], "device": "/device:CPU:0", "attr": {"strides": {"list": {"i": ["1", "1", "1", "1"]}}, "dilations": {"list": {"i": ["1", "1", "1", "1"]}}, "T": {"type": "DT_FLOAT"}, "explicit_paddings": {"list": {}}, "data_format": {"s": "TkhXQw=="}, "use_cudnn_on_gpu": {"b": true}, "padding": {"s": "U0FNRQ=="}}}, {"name": "PartitionedCall/model_3/tf.compat.v1.pad_6/Pad", "op": "Pad", "input": ["PartitionedCall/model_3/tf.math.multiply_143/Mul", "22011"], "attr": {"Tpaddings": {"type": "DT_INT32"}, "T": {"type": "DT_FLOAT"}}}, {"name": "PartitionedCall/model_3/tf.math.add_55/Add", "op": "AddV2", "input": ["PartitionedCall/model_3/tf.nn.convolution_49/convolution", "22063"], "attr": {"T": {"type": "DT_FLOAT"}}}, {"name": "PartitionedCall/model_3/tf.math.add_56/Add", "op": "AddV2", "input": ["PartitionedCall/model_3/tf.nn.convolution_50/convolution", "22061"], "attr": {"T": {"type": "DT_FLOAT"}}}, {"name": "PartitionedCall/model_3/tf.nn.convolution_48/convolution", "op": "Conv2D", "input": ["PartitionedCall/model_3/tf.compat.v1.pad_6/Pad", "22013"], "device": "/device:CPU:0", "attr": {"dilations": {"list": {"i": ["1", "1", "1", "1"]}}, "strides": {"list": {"i": ["1", "2", "2", "1"]}}, "padding": {"s": "VkFMSUQ="}, "data_format": {"s": "TkhXQw=="}, "explicit_paddings": {"list": {}}, "use_cudnn_on_gpu": {"b": true}, "T": {"type": "DT_FLOAT"}}}, {"name": "PartitionedCall/model_3/tf.math.sigmoid_45/Sigmoid", "op": "Sigmoid", "input": ["PartitionedCall/model_3/tf.math.add_55/Add"], "attr": {"T": {"type": "DT_FLOAT"}}}, {"name": "PartitionedCall/model_3/tf.math.sigmoid_46/Sigmoid", "op": "Sigmoid", "input": ["PartitionedCall/model_3/tf.math.add_56/Add"], "attr": {"T": {"type": "DT_FLOAT"}}}, {"name": "PartitionedCall/model_3/tf.math.add_54/Add", "op": "AddV2", "input": ["PartitionedCall/model_3/tf.nn.convolution_48/convolution", "22015"], "attr": {"T": {"type": "DT_FLOAT"}}}, {"name": "PartitionedCall/model_3/tf.math.multiply_149/Mul", "op": "Mul", "input": ["PartitionedCall/model_3/tf.math.add_55/Add", "PartitionedCall/model_3/tf.math.sigmoid_45/Sigmoid"], "attr": {"T": {"type": "DT_FLOAT"}}}, {"name": "PartitionedCall/model_3/tf.math.multiply_152/Mul", "op": "Mul", "input": ["PartitionedCall/model_3/tf.math.add_56/Add", "PartitionedCall/model_3/tf.math.sigmoid_46/Sigmoid"], "attr": {"T": {"type": "DT_FLOAT"}}}, {"name": "PartitionedCall/model_3/tf.math.sigmoid_44/Sigmoid", "op": "Sigmoid", "input": ["PartitionedCall/model_3/tf.math.add_54/Add"], "attr": {"T": {"type": "DT_FLOAT"}}}, {"name": "PartitionedCall/model_3/tf.nn.convolution_51/convolution", "op": "Conv2D", "input": ["PartitionedCall/model_3/tf.math.multiply_149/Mul", "22077"], "device": "/device:CPU:0", "attr": {"use_cudnn_on_gpu": {"b": true}, "T": {"type": "DT_FLOAT"}, "dilations": {"list": {"i": ["1", "1", "1", "1"]}}, "data_format": {"s": "TkhXQw=="}, "strides": {"list": {"i": ["1", "1", "1", "1"]}}, "explicit_paddings": {"list": {}}, "padding": {"s": "U0FNRQ=="}}}, {"name": "PartitionedCall/model_3/tf.nn.convolution_52/convolution", "op": "Conv2D", "input": ["PartitionedCall/model_3/tf.math.multiply_152/Mul", "22075"], "device": "/device:CPU:0", "attr": {"explicit_paddings": {"list": {}}, "use_cudnn_on_gpu": {"b": true}, "dilations": {"list": {"i": ["1", "1", "1", "1"]}}, "padding": {"s": "U0FNRQ=="}, "data_format": {"s": "TkhXQw=="}, "strides": {"list": {"i": ["1", "1", "1", "1"]}}, "T": {"type": "DT_FLOAT"}}}, {"name": "PartitionedCall/model_3/tf.math.multiply_146/Mul", "op": "Mul", "input": ["PartitionedCall/model_3/tf.math.add_54/Add", "PartitionedCall/model_3/tf.math.sigmoid_44/Sigmoid"], "attr": {"T": {"type": "DT_FLOAT"}}}, {"name": "PartitionedCall/model_3/tf.math.add_57/Add", "op": "AddV2", "input": ["PartitionedCall/model_3/tf.nn.convolution_51/convolution", "22087"], "attr": {"T": {"type": "DT_FLOAT"}}}, {"name": "PartitionedCall/model_3/tf.math.add_58/Add", "op": "AddV2", "input": ["PartitionedCall/model_3/tf.nn.convolution_52/convolution", "22085"], "attr": {"T": {"type": "DT_FLOAT"}}}, {"name": "PartitionedCall/model_3/tf.concat_589/concat", "op": "ConcatV2", "input": ["PartitionedCall/model_3/tf.math.multiply_146/Mul", "PartitionedCall/model_3/tf.math.multiply_92/Mul", "PartitionedCall/model_3/tf.concat_589/concat/axis"], "attr": {"T": {"type": "DT_FLOAT"}, "Tidx": {"type": "DT_INT32"}, "N": {"i": "2"}}}, {"name": "PartitionedCall/model_3/tf.math.sigmoid_47/Sigmoid", "op": "Sigmoid", "input": ["PartitionedCall/model_3/tf.math.add_57/Add"], "attr": {"T": {"type": "DT_FLOAT"}}}, {"name": "PartitionedCall/model_3/tf.math.sigmoid_48/Sigmoid", "op": "Sigmoid", "input": ["PartitionedCall/model_3/tf.math.add_58/Add"], "attr": {"T": {"type": "DT_FLOAT"}}}, {"name": "PartitionedCall/model_3/tf.nn.convolution_53/convolution", "op": "Conv2D", "input": ["PartitionedCall/model_3/tf.concat_589/concat", "22017"], "device": "/device:CPU:0", "attr": {"dilations": {"list": {"i": ["1", "1", "1", "1"]}}, "data_format": {"s": "TkhXQw=="}, "T": {"type": "DT_FLOAT"}, "padding": {"s": "U0FNRQ=="}, "explicit_paddings": {"list": {}}, "strides": {"list": {"i": ["1", "1", "1", "1"]}}, "use_cudnn_on_gpu": {"b": true}}}, {"name": "PartitionedCall/model_3/tf.math.multiply_155/Mul", "op": "Mul", "input": ["PartitionedCall/model_3/tf.math.add_57/Add", "PartitionedCall/model_3/tf.math.sigmoid_47/Sigmoid"], "attr": {"T": {"type": "DT_FLOAT"}}}, {"name": "PartitionedCall/model_3/tf.math.multiply_158/Mul", "op": "Mul", "input": ["PartitionedCall/model_3/tf.math.add_58/Add", "PartitionedCall/model_3/tf.math.sigmoid_48/Sigmoid"], "attr": {"T": {"type": "DT_FLOAT"}}}, {"name": "PartitionedCall/model_3/tf.math.add_59/Add", "op": "AddV2", "input": ["PartitionedCall/model_3/tf.nn.convolution_53/convolution", "22019"], "attr": {"T": {"type": "DT_FLOAT"}}}, {"name": "PartitionedCall/model_3/tf.nn.convolution_54/convolution", "op": "Conv2D", "input": ["PartitionedCall/model_3/tf.math.multiply_155/Mul", "22099"], "device": "/device:CPU:0", "attr": {"data_format": {"s": "TkhXQw=="}, "explicit_paddings": {"list": {}}, "use_cudnn_on_gpu": {"b": true}, "strides": {"list": {"i": ["1", "1", "1", "1"]}}, "padding": {"s": "U0FNRQ=="}, "T": {"type": "DT_FLOAT"}, "dilations": {"list": {"i": ["1", "1", "1", "1"]}}}}, {"name": "PartitionedCall/model_3/tf.nn.convolution_55/convolution", "op": "Conv2D", "input": ["PartitionedCall/model_3/tf.math.multiply_158/Mul", "22097"], "device": "/device:CPU:0", "attr": {"explicit_paddings": {"list": {}}, "padding": {"s": "U0FNRQ=="}, "use_cudnn_on_gpu": {"b": true}, "T": {"type": "DT_FLOAT"}, "dilations": {"list": {"i": ["1", "1", "1", "1"]}}, "data_format": {"s": "TkhXQw=="}, "strides": {"list": {"i": ["1", "1", "1", "1"]}}}}, {"name": "PartitionedCall/model_3/tf.math.sigmoid_49/Sigmoid", "op": "Sigmoid", "input": ["PartitionedCall/model_3/tf.math.add_59/Add"], "attr": {"T": {"type": "DT_FLOAT"}}}, {"name": "PartitionedCall/model_3/tf.math.add_60/Add", "op": "AddV2", "input": ["PartitionedCall/model_3/tf.nn.convolution_54/convolution", "22109"], "attr": {"T": {"type": "DT_FLOAT"}}}, {"name": "PartitionedCall/model_3/tf.math.add_61/Add", "op": "AddV2", "input": ["PartitionedCall/model_3/tf.nn.convolution_55/convolution", "22111"], "attr": {"T": {"type": "DT_FLOAT"}}}, {"name": "PartitionedCall/model_3/tf.math.multiply_161/Mul", "op": "Mul", "input": ["PartitionedCall/model_3/tf.math.add_59/Add", "PartitionedCall/model_3/tf.math.sigmoid_49/Sigmoid"], "attr": {"T": {"type": "DT_FLOAT"}}}, {"name": "PartitionedCall/model_3/tf.concat_590/concat", "op": "ConcatV2", "input": ["PartitionedCall/model_3/tf.math.add_60/Add", "PartitionedCall/model_3/tf.math.add_61/Add", "PartitionedCall/model_3/tf.concat_590/concat/axis"], "attr": {"T": {"type": "DT_FLOAT"}, "Tidx": {"type": "DT_INT32"}, "N": {"i": "2"}}}, {"name": "PartitionedCall/model_3/tf.strided_slice_14/StridedSlice", "op": "StridedSlice", "input": ["PartitionedCall/model_3/tf.math.multiply_161/Mul", "22033", "22035", "PartitionedCall/model_3/tf.strided_slice_14/ones_like"], "attr": {"T": {"type": "DT_FLOAT"}, "ellipsis_mask": {"i": "0"}, "new_axis_mask": {"i": "0"}, "begin_mask": {"i": "15"}, "shrink_axis_mask": {"i": "0"}, "Index": {"type": "DT_INT64"}, "end_mask": {"i": "7"}}}, {"name": "PartitionedCall/model_3/tf.strided_slice_15/StridedSlice", "op": "StridedSlice", "input": ["PartitionedCall/model_3/tf.math.multiply_161/Mul", "22021", "22023", "PartitionedCall/model_3/tf.strided_slice_15/ones_like"], "attr": {"T": {"type": "DT_FLOAT"}, "ellipsis_mask": {"i": "0"}, "new_axis_mask": {"i": "0"}, "begin_mask": {"i": "7"}, "shrink_axis_mask": {"i": "0"}, "Index": {"type": "DT_INT64"}, "end_mask": {"i": "7"}}}, {"name": "PartitionedCall/model_3/tf.compat.v1.transpose_1157/transpose", "op": "Transpose", "input": ["PartitionedCall/model_3/tf.concat_590/concat", "PartitionedCall/model_3/tf.compat.v1.transpose_1157/transpose/perm"], "attr": {"Tperm": {"type": "DT_INT32"}, "T": {"type": "DT_FLOAT"}}}, {"name": "PartitionedCall/model_3/tf.nn.convolution_56/convolution", "op": "Conv2D", "input": ["PartitionedCall/model_3/tf.strided_slice_15/StridedSlice", "22025"], "device": "/device:CPU:0", "attr": {"dilations": {"list": {"i": ["1", "1", "1", "1"]}}, "padding": {"s": "U0FNRQ=="}, "T": {"type": "DT_FLOAT"}, "data_format": {"s": "TkhXQw=="}, "explicit_paddings": {"list": {}}, "use_cudnn_on_gpu": {"b": true}, "strides": {"list": {"i": ["1", "1", "1", "1"]}}}}, {"name": "PartitionedCall/model_3/tf.reshape_1/Reshape", "op": "Reshape", "input": ["PartitionedCall/model_3/tf.compat.v1.transpose_1157/transpose", "PartitionedCall/model_3/tf.reshape_1/Reshape/shape"], "attr": {"T": {"type": "DT_FLOAT"}, "Tshape": {"type": "DT_INT32"}}}, {"name": "PartitionedCall/model_3/tf.math.add_62/Add", "op": "AddV2", "input": ["PartitionedCall/model_3/tf.nn.convolution_56/convolution", "22027"], "attr": {"T": {"type": "DT_FLOAT"}}}, {"name": "PartitionedCall/model_3/tf.math.sigmoid_50/Sigmoid", "op": "Sigmoid", "input": ["PartitionedCall/model_3/tf.math.add_62/Add"], "attr": {"T": {"type": "DT_FLOAT"}}}, {"name": "PartitionedCall/model_3/tf.math.multiply_164/Mul", "op": "Mul", "input": ["PartitionedCall/model_3/tf.math.add_62/Add", "PartitionedCall/model_3/tf.math.sigmoid_50/Sigmoid"], "attr": {"T": {"type": "DT_FLOAT"}}}, {"name": "PartitionedCall/model_3/tf.nn.convolution_57/convolution", "op": "Conv2D", "input": ["PartitionedCall/model_3/tf.math.multiply_164/Mul", "22029"], "device": "/device:CPU:0", "attr": {"padding": {"s": "U0FNRQ=="}, "explicit_paddings": {"list": {}}, "strides": {"list": {"i": ["1", "1", "1", "1"]}}, "T": {"type": "DT_FLOAT"}, "use_cudnn_on_gpu": {"b": true}, "dilations": {"list": {"i": ["1", "1", "1", "1"]}}, "data_format": {"s": "TkhXQw=="}}}, {"name": "PartitionedCall/model_3/tf.math.add_63/Add", "op": "AddV2", "input": ["PartitionedCall/model_3/tf.nn.convolution_57/convolution", "22031"], "attr": {"T": {"type": "DT_FLOAT"}}}, {"name": "PartitionedCall/model_3/tf.math.sigmoid_51/Sigmoid", "op": "Sigmoid", "input": ["PartitionedCall/model_3/tf.math.add_63/Add"], "attr": {"T": {"type": "DT_FLOAT"}}}, {"name": "PartitionedCall/model_3/tf.math.multiply_167/Mul", "op": "Mul", "input": ["PartitionedCall/model_3/tf.math.add_63/Add", "PartitionedCall/model_3/tf.math.sigmoid_51/Sigmoid"], "attr": {"T": {"type": "DT_FLOAT"}}}, {"name": "PartitionedCall/model_3/tf.concat_591/concat", "op": "ConcatV2", "input": ["PartitionedCall/model_3/tf.strided_slice_14/StridedSlice", "PartitionedCall/model_3/tf.strided_slice_15/StridedSlice", "PartitionedCall/model_3/tf.math.multiply_167/Mul", "PartitionedCall/model_3/tf.concat_591/concat/axis"], "attr": {"N": {"i": "3"}, "T": {"type": "DT_FLOAT"}, "Tidx": {"type": "DT_INT32"}}}, {"name": "PartitionedCall/model_3/tf.nn.convolution_58/convolution", "op": "Conv2D", "input": ["PartitionedCall/model_3/tf.concat_591/concat", "22037"], "device": "/device:CPU:0", "attr": {"use_cudnn_on_gpu": {"b": true}, "T": {"type": "DT_FLOAT"}, "data_format": {"s": "TkhXQw=="}, "strides": {"list": {"i": ["1", "1", "1", "1"]}}, "explicit_paddings": {"list": {}}, "dilations": {"list": {"i": ["1", "1", "1", "1"]}}, "padding": {"s": "U0FNRQ=="}}}, {"name": "PartitionedCall/model_3/tf.math.add_64/Add", "op": "AddV2", "input": ["PartitionedCall/model_3/tf.nn.convolution_58/convolution", "22039"], "attr": {"T": {"type": "DT_FLOAT"}}}, {"name": "PartitionedCall/model_3/tf.math.sigmoid_52/Sigmoid", "op": "Sigmoid", "input": ["PartitionedCall/model_3/tf.math.add_64/Add"], "attr": {"T": {"type": "DT_FLOAT"}}}, {"name": "PartitionedCall/model_3/tf.math.multiply_170/Mul", "op": "Mul", "input": ["PartitionedCall/model_3/tf.math.add_64/Add", "PartitionedCall/model_3/tf.math.sigmoid_52/Sigmoid"], "attr": {"T": {"type": "DT_FLOAT"}}}, {"name": "PartitionedCall/model_3/tf.nn.convolution_59/convolution", "op": "Conv2D", "input": ["PartitionedCall/model_3/tf.math.multiply_170/Mul", "22049"], "device": "/device:CPU:0", "attr": {"dilations": {"list": {"i": ["1", "1", "1", "1"]}}, "T": {"type": "DT_FLOAT"}, "explicit_paddings": {"list": {}}, "data_format": {"s": "TkhXQw=="}, "strides": {"list": {"i": ["1", "1", "1", "1"]}}, "padding": {"s": "U0FNRQ=="}, "use_cudnn_on_gpu": {"b": true}}}, {"name": "PartitionedCall/model_3/tf.nn.convolution_60/convolution", "op": "Conv2D", "input": ["PartitionedCall/model_3/tf.math.multiply_170/Mul", "22047"], "device": "/device:CPU:0", "attr": {"data_format": {"s": "TkhXQw=="}, "padding": {"s": "U0FNRQ=="}, "strides": {"list": {"i": ["1", "1", "1", "1"]}}, "explicit_paddings": {"list": {}}, "T": {"type": "DT_FLOAT"}, "dilations": {"list": {"i": ["1", "1", "1", "1"]}}, "use_cudnn_on_gpu": {"b": true}}}, {"name": "PartitionedCall/model_3/tf.math.add_65/Add", "op": "AddV2", "input": ["PartitionedCall/model_3/tf.nn.convolution_59/convolution", "22059"], "attr": {"T": {"type": "DT_FLOAT"}}}, {"name": "PartitionedCall/model_3/tf.math.add_66/Add", "op": "AddV2", "input": ["PartitionedCall/model_3/tf.nn.convolution_60/convolution", "22057"], "attr": {"T": {"type": "DT_FLOAT"}}}, {"name": "PartitionedCall/model_3/tf.math.sigmoid_53/Sigmoid", "op": "Sigmoid", "input": ["PartitionedCall/model_3/tf.math.add_65/Add"], "attr": {"T": {"type": "DT_FLOAT"}}}, {"name": "PartitionedCall/model_3/tf.math.sigmoid_54/Sigmoid", "op": "Sigmoid", "input": ["PartitionedCall/model_3/tf.math.add_66/Add"], "attr": {"T": {"type": "DT_FLOAT"}}}, {"name": "PartitionedCall/model_3/tf.math.multiply_173/Mul", "op": "Mul", "input": ["PartitionedCall/model_3/tf.math.add_65/Add", "PartitionedCall/model_3/tf.math.sigmoid_53/Sigmoid"], "attr": {"T": {"type": "DT_FLOAT"}}}, {"name": "PartitionedCall/model_3/tf.math.multiply_176/Mul", "op": "Mul", "input": ["PartitionedCall/model_3/tf.math.add_66/Add", "PartitionedCall/model_3/tf.math.sigmoid_54/Sigmoid"], "attr": {"T": {"type": "DT_FLOAT"}}}, {"name": "PartitionedCall/model_3/tf.nn.convolution_61/convolution", "op": "Conv2D", "input": ["PartitionedCall/model_3/tf.math.multiply_173/Mul", "22073"], "device": "/device:CPU:0", "attr": {"strides": {"list": {"i": ["1", "1", "1", "1"]}}, "explicit_paddings": {"list": {}}, "dilations": {"list": {"i": ["1", "1", "1", "1"]}}, "use_cudnn_on_gpu": {"b": true}, "padding": {"s": "U0FNRQ=="}, "T": {"type": "DT_FLOAT"}, "data_format": {"s": "TkhXQw=="}}}, {"name": "PartitionedCall/model_3/tf.nn.convolution_62/convolution", "op": "Conv2D", "input": ["PartitionedCall/model_3/tf.math.multiply_176/Mul", "22071"], "device": "/device:CPU:0", "attr": {"explicit_paddings": {"list": {}}, "padding": {"s": "U0FNRQ=="}, "data_format": {"s": "TkhXQw=="}, "strides": {"list": {"i": ["1", "1", "1", "1"]}}, "T": {"type": "DT_FLOAT"}, "use_cudnn_on_gpu": {"b": true}, "dilations": {"list": {"i": ["1", "1", "1", "1"]}}}}, {"name": "PartitionedCall/model_3/tf.math.add_67/Add", "op": "AddV2", "input": ["PartitionedCall/model_3/tf.nn.convolution_61/convolution", "22083"], "attr": {"T": {"type": "DT_FLOAT"}}}, {"name": "PartitionedCall/model_3/tf.math.add_68/Add", "op": "AddV2", "input": ["PartitionedCall/model_3/tf.nn.convolution_62/convolution", "22081"], "attr": {"T": {"type": "DT_FLOAT"}}}, {"name": "PartitionedCall/model_3/tf.math.sigmoid_55/Sigmoid", "op": "Sigmoid", "input": ["PartitionedCall/model_3/tf.math.add_67/Add"], "attr": {"T": {"type": "DT_FLOAT"}}}, {"name": "PartitionedCall/model_3/tf.math.sigmoid_56/Sigmoid", "op": "Sigmoid", "input": ["PartitionedCall/model_3/tf.math.add_68/Add"], "attr": {"T": {"type": "DT_FLOAT"}}}, {"name": "PartitionedCall/model_3/tf.math.multiply_179/Mul", "op": "Mul", "input": ["PartitionedCall/model_3/tf.math.add_67/Add", "PartitionedCall/model_3/tf.math.sigmoid_55/Sigmoid"], "attr": {"T": {"type": "DT_FLOAT"}}}, {"name": "PartitionedCall/model_3/tf.math.multiply_182/Mul", "op": "Mul", "input": ["PartitionedCall/model_3/tf.math.add_68/Add", "PartitionedCall/model_3/tf.math.sigmoid_56/Sigmoid"], "attr": {"T": {"type": "DT_FLOAT"}}}, {"name": "PartitionedCall/model_3/tf.nn.convolution_63/convolution", "op": "Conv2D", "input": ["PartitionedCall/model_3/tf.math.multiply_179/Mul", "22095"], "device": "/device:CPU:0", "attr": {"use_cudnn_on_gpu": {"b": true}, "strides": {"list": {"i": ["1", "1", "1", "1"]}}, "dilations": {"list": {"i": ["1", "1", "1", "1"]}}, "explicit_paddings": {"list": {}}, "data_format": {"s": "TkhXQw=="}, "padding": {"s": "U0FNRQ=="}, "T": {"type": "DT_FLOAT"}}}, {"name": "PartitionedCall/model_3/tf.nn.convolution_64/convolution", "op": "Conv2D", "input": ["PartitionedCall/model_3/tf.math.multiply_182/Mul", "22093"], "device": "/device:CPU:0", "attr": {"strides": {"list": {"i": ["1", "1", "1", "1"]}}, "use_cudnn_on_gpu": {"b": true}, "dilations": {"list": {"i": ["1", "1", "1", "1"]}}, "data_format": {"s": "TkhXQw=="}, "explicit_paddings": {"list": {}}, "T": {"type": "DT_FLOAT"}, "padding": {"s": "U0FNRQ=="}}}, {"name": "PartitionedCall/model_3/tf.math.add_69/Add", "op": "AddV2", "input": ["PartitionedCall/model_3/tf.nn.convolution_63/convolution", "22105"], "attr": {"T": {"type": "DT_FLOAT"}}}, {"name": "PartitionedCall/model_3/tf.math.add_70/Add", "op": "AddV2", "input": ["PartitionedCall/model_3/tf.nn.convolution_64/convolution", "22107"], "attr": {"T": {"type": "DT_FLOAT"}}}, {"name": "PartitionedCall/model_3/tf.concat_592/concat", "op": "ConcatV2", "input": ["PartitionedCall/model_3/tf.math.add_69/Add", "PartitionedCall/model_3/tf.math.add_70/Add", "PartitionedCall/model_3/tf.concat_592/concat/axis"], "attr": {"N": {"i": "2"}, "Tidx": {"type": "DT_INT32"}, "T": {"type": "DT_FLOAT"}}}, {"name": "PartitionedCall/model_3/tf.compat.v1.transpose_1158/transpose", "op": "Transpose", "input": ["PartitionedCall/model_3/tf.concat_592/concat", "PartitionedCall/model_3/tf.compat.v1.transpose_1158/transpose/perm"], "attr": {"T": {"type": "DT_FLOAT"}, "Tperm": {"type": "DT_INT32"}}}, {"name": "PartitionedCall/model_3/tf.reshape_2/Reshape", "op": "Reshape", "input": ["PartitionedCall/model_3/tf.compat.v1.transpose_1158/transpose", "PartitionedCall/model_3/tf.reshape_2/Reshape/shape"], "attr": {"Tshape": {"type": "DT_INT32"}, "T": {"type": "DT_FLOAT"}}}, {"name": "PartitionedCall/model_3/tf.concat_593/concat", "op": "ConcatV2", "input": ["PartitionedCall/model_3/tf.reshape/Reshape", "PartitionedCall/model_3/tf.reshape_1/Reshape", "PartitionedCall/model_3/tf.reshape_2/Reshape", "PartitionedCall/model_3/tf.concat_593/concat/axis"], "attr": {"T": {"type": "DT_FLOAT"}, "Tidx": {"type": "DT_INT32"}, "N": {"i": "3"}}}, {"name": "PartitionedCall/model_3/tf.strided_slice_16/StridedSlice", "op": "StridedSlice", "input": ["PartitionedCall/model_3/tf.concat_593/concat", "22113", "22115", "PartitionedCall/model_3/tf.strided_slice_16/StridedSlice/strides"], "attr": {"ellipsis_mask": {"i": "0"}, "new_axis_mask": {"i": "0"}, "shrink_axis_mask": {"i": "0"}, "begin_mask": {"i": "7"}, "T": {"type": "DT_FLOAT"}, "end_mask": {"i": "5"}, "Index": {"type": "DT_INT64"}}}, {"name": "PartitionedCall/model_3/tf.strided_slice_17/StridedSlice", "op": "StridedSlice", "input": ["PartitionedCall/model_3/tf.concat_593/concat", "22133", "22135", "PartitionedCall/model_3/tf.strided_slice_17/StridedSlice/strides"], "attr": {"begin_mask": {"i": "5"}, "T": {"type": "DT_FLOAT"}, "end_mask": {"i": "5"}, "Index": {"type": "DT_INT64"}, "shrink_axis_mask": {"i": "0"}, "ellipsis_mask": {"i": "0"}, "new_axis_mask": {"i": "0"}}}, {"name": "PartitionedCall/model_3/tf.reshape_3/Reshape", "op": "Reshape", "input": ["PartitionedCall/model_3/tf.strided_slice_16/StridedSlice", "PartitionedCall/model_3/tf.reshape_3/Reshape/shape"], "attr": {"T": {"type": "DT_FLOAT"}, "Tshape": {"type": "DT_INT32"}}}, {"name": "PartitionedCall/model_3/tf.math.sigmoid_57/Sigmoid", "op": "Sigmoid", "input": ["PartitionedCall/model_3/tf.strided_slice_17/StridedSlice"], "attr": {"T": {"type": "DT_FLOAT"}}}, {"name": "PartitionedCall/model_3/tf.compat.v1.transpose_1160/transpose", "op": "Transpose", "input": ["PartitionedCall/model_3/tf.reshape_3/Reshape", "PartitionedCall/model_3/tf.compat.v1.transpose_1160/transpose/perm"], "attr": {"Tperm": {"type": "DT_INT32"}, "T": {"type": "DT_FLOAT"}}}, {"name": "PartitionedCall/model_3/tf.compat.v1.transpose_1161/transpose", "op": "Transpose", "input": ["PartitionedCall/model_3/tf.compat.v1.transpose_1160/transpose", "PartitionedCall/model_3/tf.compat.v1.transpose_1161/transpose/perm"], "attr": {"Tperm": {"type": "DT_INT32"}, "T": {"type": "DT_FLOAT"}}}, {"name": "PartitionedCall/model_3/tf.nn.softmax//model.22/dfl/Softmax", "op": "Softmax", "input": ["PartitionedCall/model_3/tf.compat.v1.transpose_1161/transpose"], "attr": {"T": {"type": "DT_FLOAT"}}}, {"name": "PartitionedCall/model_3/tf.nn.convolution_65/convolution", "op": "Conv2D", "input": ["PartitionedCall/model_3/tf.nn.softmax//model.22/dfl/Softmax", "22117"], "device": "/device:CPU:0", "attr": {"data_format": {"s": "TkhXQw=="}, "explicit_paddings": {"list": {}}, "padding": {"s": "U0FNRQ=="}, "dilations": {"list": {"i": ["1", "1", "1", "1"]}}, "strides": {"list": {"i": ["1", "1", "1", "1"]}}, "use_cudnn_on_gpu": {"b": true}, "T": {"type": "DT_FLOAT"}}}, {"name": "PartitionedCall/model_3/tf.compat.v1.transpose_1164/transpose", "op": "Transpose", "input": ["PartitionedCall/model_3/tf.nn.convolution_65/convolution", "PartitionedCall/model_3/tf.compat.v1.transpose_1164/transpose/perm"], "attr": {"Tperm": {"type": "DT_INT32"}, "T": {"type": "DT_FLOAT"}}}, {"name": "PartitionedCall/model_3/tf.reshape_4/Reshape", "op": "Reshape", "input": ["PartitionedCall/model_3/tf.compat.v1.transpose_1164/transpose", "PartitionedCall/model_3/tf.reshape_4/Reshape/shape"], "attr": {"T": {"type": "DT_FLOAT"}, "Tshape": {"type": "DT_INT32"}}}, {"name": "PartitionedCall/model_3/tf.strided_slice_19/StridedSlice", "op": "StridedSlice", "input": ["PartitionedCall/model_3/tf.reshape_4/Reshape", "22119", "22121", "PartitionedCall/model_3/tf.strided_slice_19/ones_like"], "attr": {"T": {"type": "DT_FLOAT"}, "new_axis_mask": {"i": "0"}, "shrink_axis_mask": {"i": "0"}, "ellipsis_mask": {"i": "0"}, "end_mask": {"i": "5"}, "Index": {"type": "DT_INT64"}, "begin_mask": {"i": "5"}}}, {"name": "PartitionedCall/model_3/tf.strided_slice_18/StridedSlice", "op": "StridedSlice", "input": ["PartitionedCall/model_3/tf.reshape_4/Reshape", "22123", "22125", "PartitionedCall/model_3/tf.strided_slice_18/ones_like"], "attr": {"T": {"type": "DT_FLOAT"}, "new_axis_mask": {"i": "0"}, "shrink_axis_mask": {"i": "0"}, "ellipsis_mask": {"i": "0"}, "end_mask": {"i": "5"}, "Index": {"type": "DT_INT64"}, "begin_mask": {"i": "7"}}}, {"name": "PartitionedCall/model_3/tf.math.add_71/Add", "op": "AddV2", "input": ["22127", "PartitionedCall/model_3/tf.strided_slice_19/StridedSlice"], "attr": {"T": {"type": "DT_FLOAT"}}}, {"name": "PartitionedCall/model_3/tf.math.subtract/Sub", "op": "Sub", "input": ["22129", "PartitionedCall/model_3/tf.strided_slice_18/StridedSlice"], "attr": {"T": {"type": "DT_FLOAT"}}}, {"name": "PartitionedCall/model_3/tf.math.add_72/Add", "op": "AddV2", "input": ["PartitionedCall/model_3/tf.math.subtract/Sub", "PartitionedCall/model_3/tf.math.add_71/Add"], "attr": {"T": {"type": "DT_FLOAT"}}}, {"name": "PartitionedCall/model_3/tf.math.subtract_1/Sub", "op": "Sub", "input": ["PartitionedCall/model_3/tf.math.add_71/Add", "PartitionedCall/model_3/tf.math.subtract/Sub"], "attr": {"T": {"type": "DT_FLOAT"}}}, {"name": "PartitionedCall/model_3/tf.math.divide/truediv", "op": "Mul", "input": ["PartitionedCall/model_3/tf.math.add_72/Add", "ConstantFolding/PartitionedCall/model_3/tf.math.divide/truediv_recip"], "attr": {"T": {"type": "DT_FLOAT"}}}, {"name": "PartitionedCall/model_3/tf.concat_594/concat", "op": "ConcatV2", "input": ["PartitionedCall/model_3/tf.math.divide/truediv", "PartitionedCall/model_3/tf.math.subtract_1/Sub", "PartitionedCall/model_3/tf.concat_594/concat/axis"], "attr": {"T": {"type": "DT_FLOAT"}, "N": {"i": "2"}, "Tidx": {"type": "DT_INT32"}}}, {"name": "PartitionedCall/model_3/tf.math.multiply_195/Mul", "op": "Mul", "input": ["PartitionedCall/model_3/tf.concat_594/concat", "PartitionedCall/model_3/tf.math.multiply_195/Mul/y"], "attr": {"T": {"type": "DT_FLOAT"}}}, {"name": "PartitionedCall/model_3/output0/concat", "op": "ConcatV2", "input": ["PartitionedCall/model_3/tf.math.multiply_195/Mul", "PartitionedCall/model_3/tf.math.sigmoid_57/Sigmoid", "PartitionedCall/model_3/output0/concat/axis"], "attr": {"Tidx": {"type": "DT_INT32"}, "N": {"i": "2"}, "T": {"type": "DT_FLOAT"}}}, {"name": "Identity", "op": "Identity", "input": ["PartitionedCall/model_3/output0/concat"], "attr": {"T": {"type": "DT_FLOAT"}}}], "library": {}, "versions": {"producer": 1395}}, "weightsManifest": [{"paths": ["group1-shard1of4.bin", "group1-shard2of4.bin", "group1-shard3of4.bin", "group1-shard4of4.bin"], "weights": [{"name": "ConstantFolding/PartitionedCall/model_3/tf.math.divide/truediv_recip", "shape": [1, 1, 1], "dtype": "float32"}, {"name": "22127", "shape": [1, 2, 8400], "dtype": "float32"}, {"name": "22119", "shape": [3], "dtype": "int32"}, {"name": "22121", "shape": [3], "dtype": "int32"}, {"name": "PartitionedCall/model_3/tf.strided_slice_19/ones_like", "shape": [3], "dtype": "int32"}, {"name": "22129", "shape": [1, 2, 8400], "dtype": "float32"}, {"name": "22113", "shape": [3], "dtype": "int32"}, {"name": "22115", "shape": [3], "dtype": "int32"}, {"name": "PartitionedCall/model_3/tf.strided_slice_16/StridedSlice/strides", "shape": [3], "dtype": "int32"}, {"name": "PartitionedCall/model_3/tf.reshape_3/Reshape/shape", "shape": [4], "dtype": "int32"}, {"name": "PartitionedCall/model_3/tf.compat.v1.transpose_1160/transpose/perm", "shape": [4], "dtype": "int32"}, {"name": "PartitionedCall/model_3/tf.compat.v1.transpose_1161/transpose/perm", "shape": [4], "dtype": "int32"}, {"name": "22117", "shape": [1, 1, 16, 1], "dtype": "float32"}, {"name": "PartitionedCall/model_3/tf.compat.v1.transpose_1164/transpose/perm", "shape": [4], "dtype": "int32"}, {"name": "PartitionedCall/model_3/tf.reshape_4/Reshape/shape", "shape": [3], "dtype": "int32"}, {"name": "22123", "shape": [3], "dtype": "int32"}, {"name": "22125", "shape": [3], "dtype": "int32"}, {"name": "PartitionedCall/model_3/tf.strided_slice_18/ones_like", "shape": [3], "dtype": "int32"}, {"name": "PartitionedCall/model_3/tf.concat_594/concat/axis", "shape": [], "dtype": "int32"}, {"name": "PartitionedCall/model_3/tf.math.multiply_195/Mul/y", "shape": [1, 1, 8400], "dtype": "float32"}, {"name": "22045", "shape": [3, 3, 64, 64], "dtype": "float32"}, {"name": "22055", "shape": [64], "dtype": "float32"}, {"name": "22069", "shape": [3, 3, 64, 64], "dtype": "float32"}, {"name": "22079", "shape": [64], "dtype": "float32"}, {"name": "22091", "shape": [1, 1, 64, 64], "dtype": "float32"}, {"name": "22103", "shape": [64], "dtype": "float32"}, {"name": "22041", "shape": [3, 3, 64, 80], "dtype": "float32"}, {"name": "22043", "shape": [80], "dtype": "float32"}, {"name": "22065", "shape": [3, 3, 80, 80], "dtype": "float32"}, {"name": "22067", "shape": [80], "dtype": "float32"}, {"name": "22089", "shape": [1, 1, 80, 80], "dtype": "float32"}, {"name": "22101", "shape": [80], "dtype": "float32"}, {"name": "PartitionedCall/model_3/tf.concat_587/concat/axis", "shape": [], "dtype": "int32"}, {"name": "PartitionedCall/model_3/tf.compat.v1.transpose_1156/transpose/perm", "shape": [4], "dtype": "int32"}, {"name": "PartitionedCall/model_3/tf.reshape/Reshape/shape", "shape": [3], "dtype": "int32"}, {"name": "22053", "shape": [3, 3, 128, 64], "dtype": "float32"}, {"name": "22063", "shape": [64], "dtype": "float32"}, {"name": "22077", "shape": [3, 3, 64, 64], "dtype": "float32"}, {"name": "22087", "shape": [64], "dtype": "float32"}, {"name": "22099", "shape": [1, 1, 64, 64], "dtype": "float32"}, {"name": "22109", "shape": [64], "dtype": "float32"}, {"name": "22051", "shape": [3, 3, 128, 80], "dtype": "float32"}, {"name": "22061", "shape": [80], "dtype": "float32"}, {"name": "22075", "shape": [3, 3, 80, 80], "dtype": "float32"}, {"name": "22085", "shape": [80], "dtype": "float32"}, {"name": "22097", "shape": [1, 1, 80, 80], "dtype": "float32"}, {"name": "22111", "shape": [80], "dtype": "float32"}, {"name": "PartitionedCall/model_3/tf.concat_590/concat/axis", "shape": [], "dtype": "int32"}, {"name": "PartitionedCall/model_3/tf.compat.v1.transpose_1157/transpose/perm", "shape": [4], "dtype": "int32"}, {"name": "PartitionedCall/model_3/tf.reshape_1/Reshape/shape", "shape": [3], "dtype": "int32"}, {"name": "22049", "shape": [3, 3, 256, 64], "dtype": "float32"}, {"name": "22059", "shape": [64], "dtype": "float32"}, {"name": "22073", "shape": [3, 3, 64, 64], "dtype": "float32"}, {"name": "22083", "shape": [64], "dtype": "float32"}, {"name": "22095", "shape": [1, 1, 64, 64], "dtype": "float32"}, {"name": "22105", "shape": [64], "dtype": "float32"}, {"name": "22033", "shape": [4], "dtype": "int32"}, {"name": "22035", "shape": [4], "dtype": "int32"}, {"name": "PartitionedCall/model_3/tf.strided_slice_14/ones_like", "shape": [4], "dtype": "int32"}, {"name": "22003", "shape": [4], "dtype": "int32"}, {"name": "22005", "shape": [4], "dtype": "int32"}, {"name": "PartitionedCall/model_3/tf.strided_slice_12/ones_like", "shape": [4], "dtype": "int32"}, {"name": "21973", "shape": [4], "dtype": "int32"}, {"name": "21975", "shape": [4], "dtype": "int32"}, {"name": "PartitionedCall/model_3/tf.strided_slice_10/ones_like", "shape": [4], "dtype": "int32"}, {"name": "PartitionedCall/model_3/lambda_1//model.13/Resize/size", "shape": [2], "dtype": "int32"}, {"name": "PartitionedCall/model_3/tf.concat_7/concat/axis", "shape": [], "dtype": "int32"}, {"name": "21957", "shape": [1, 1, 192, 64], "dtype": "float32"}, {"name": "21959", "shape": [64], "dtype": "float32"}, {"name": "21961", "shape": [4], "dtype": "int32"}, {"name": "21963", "shape": [4], "dtype": "int32"}, {"name": "PartitionedCall/model_3/tf.strided_slice_11/ones_like", "shape": [4], "dtype": "int32"}, {"name": "21965", "shape": [3, 3, 32, 32], "dtype": "float32"}, {"name": "21967", "shape": [32], "dtype": "float32"}, {"name": "21969", "shape": [3, 3, 32, 32], "dtype": "float32"}, {"name": "21971", "shape": [32], "dtype": "float32"}, {"name": "PartitionedCall/model_3/tf.concat_8/concat/axis", "shape": [], "dtype": "int32"}, {"name": "21977", "shape": [1, 1, 96, 64], "dtype": "float32"}, {"name": "21979", "shape": [64], "dtype": "float32"}, {"name": "21981", "shape": [4, 2], "dtype": "int32"}, {"name": "21983", "shape": [3, 3, 64, 64], "dtype": "float32"}, {"name": "21985", "shape": [64], "dtype": "float32"}, {"name": "21949", "shape": [4], "dtype": "int32"}, {"name": "21951", "shape": [4], "dtype": "int32"}, {"name": "PartitionedCall/model_3/tf.strided_slice_8/ones_like", "shape": [4], "dtype": "int32"}, {"name": "PartitionedCall/model_3/lambda//model.10/Resize/size", "shape": [2], "dtype": "int32"}, {"name": "PartitionedCall/model_3/tf.concat_5/concat/axis", "shape": [], "dtype": "int32"}, {"name": "21933", "shape": [1, 1, 384, 128], "dtype": "float32"}, {"name": "21935", "shape": [128], "dtype": "float32"}, {"name": "21937", "shape": [4], "dtype": "int32"}, {"name": "21939", "shape": [4], "dtype": "int32"}, {"name": "PartitionedCall/model_3/tf.strided_slice_9/ones_like", "shape": [4], "dtype": "int32"}, {"name": "21941", "shape": [3, 3, 64, 64], "dtype": "float32"}, {"name": "21943", "shape": [64], "dtype": "float32"}, {"name": "21945", "shape": [3, 3, 64, 64], "dtype": "float32"}, {"name": "21947", "shape": [64], "dtype": "float32"}, {"name": "PartitionedCall/model_3/tf.concat_6/concat/axis", "shape": [], "dtype": "int32"}, {"name": "21953", "shape": [1, 1, 192, 128], "dtype": "float32"}, {"name": "21955", "shape": [128], "dtype": "float32"}, {"name": "PartitionedCall/model_3/tf.concat_9/concat/axis", "shape": [], "dtype": "int32"}, {"name": "21987", "shape": [1, 1, 192, 128], "dtype": "float32"}, {"name": "21989", "shape": [128], "dtype": "float32"}, {"name": "21991", "shape": [4], "dtype": "int32"}, {"name": "21993", "shape": [4], "dtype": "int32"}, {"name": "PartitionedCall/model_3/tf.strided_slice_13/ones_like", "shape": [4], "dtype": "int32"}, {"name": "21995", "shape": [3, 3, 64, 64], "dtype": "float32"}, {"name": "21997", "shape": [64], "dtype": "float32"}, {"name": "21999", "shape": [3, 3, 64, 64], "dtype": "float32"}, {"name": "22001", "shape": [64], "dtype": "float32"}, {"name": "PartitionedCall/model_3/tf.concat_588/concat/axis", "shape": [], "dtype": "int32"}, {"name": "22007", "shape": [1, 1, 192, 128], "dtype": "float32"}, {"name": "22009", "shape": [128], "dtype": "float32"}, {"name": "22011", "shape": [4, 2], "dtype": "int32"}, {"name": "22013", "shape": [3, 3, 128, 128], "dtype": "float32"}, {"name": "22015", "shape": [128], "dtype": "float32"}, {"name": "21917", "shape": [4], "dtype": "int32"}, {"name": "21919", "shape": [4], "dtype": "int32"}, {"name": "PartitionedCall/model_3/tf.strided_slice_6/ones_like", "shape": [4], "dtype": "int32"}, {"name": "21887", "shape": [4], "dtype": "int32"}, {"name": "21889", "shape": [4], "dtype": "int32"}, {"name": "PartitionedCall/model_3/tf.strided_slice_4/ones_like", "shape": [4], "dtype": "int32"}, {"name": "21849", "shape": [4], "dtype": "int32"}, {"name": "21851", "shape": [4], "dtype": "int32"}, {"name": "PartitionedCall/model_3/tf.strided_slice_2/ones_like", "shape": [4], "dtype": "int32"}, {"name": "21811", "shape": [4], "dtype": "int32"}, {"name": "21813", "shape": [4], "dtype": "int32"}, {"name": "PartitionedCall/model_3/tf.strided_slice/ones_like", "shape": [4], "dtype": "int32"}, {"name": "21783", "shape": [4, 2], "dtype": "int32"}, {"name": "21785", "shape": [3, 3, 3, 16], "dtype": "float32"}, {"name": "21787", "shape": [16], "dtype": "float32"}, {"name": "21789", "shape": [4, 2], "dtype": "int32"}, {"name": "21791", "shape": [3, 3, 16, 32], "dtype": "float32"}, {"name": "21793", "shape": [32], "dtype": "float32"}, {"name": "21795", "shape": [1, 1, 32, 32], "dtype": "float32"}, {"name": "21797", "shape": [32], "dtype": "float32"}, {"name": "21799", "shape": [4], "dtype": "int32"}, {"name": "21801", "shape": [4], "dtype": "int32"}, {"name": "PartitionedCall/model_3/tf.strided_slice_1/ones_like", "shape": [4], "dtype": "int32"}, {"name": "21803", "shape": [3, 3, 16, 16], "dtype": "float32"}, {"name": "21805", "shape": [16], "dtype": "float32"}, {"name": "21807", "shape": [3, 3, 16, 16], "dtype": "float32"}, {"name": "21809", "shape": [16], "dtype": "float32"}, {"name": "PartitionedCall/model_3/tf.concat/concat/axis", "shape": [], "dtype": "int32"}, {"name": "21815", "shape": [1, 1, 48, 32], "dtype": "float32"}, {"name": "21817", "shape": [32], "dtype": "float32"}, {"name": "21819", "shape": [4, 2], "dtype": "int32"}, {"name": "21821", "shape": [3, 3, 32, 64], "dtype": "float32"}, {"name": "21823", "shape": [64], "dtype": "float32"}, {"name": "21825", "shape": [1, 1, 64, 64], "dtype": "float32"}, {"name": "21827", "shape": [64], "dtype": "float32"}, {"name": "21829", "shape": [4], "dtype": "int32"}, {"name": "21831", "shape": [4], "dtype": "int32"}, {"name": "PartitionedCall/model_3/tf.strided_slice_3/ones_like", "shape": [4], "dtype": "int32"}, {"name": "21833", "shape": [3, 3, 32, 32], "dtype": "float32"}, {"name": "21835", "shape": [32], "dtype": "float32"}, {"name": "21837", "shape": [3, 3, 32, 32], "dtype": "float32"}, {"name": "21839", "shape": [32], "dtype": "float32"}, {"name": "21841", "shape": [3, 3, 32, 32], "dtype": "float32"}, {"name": "21843", "shape": [32], "dtype": "float32"}, {"name": "21845", "shape": [3, 3, 32, 32], "dtype": "float32"}, {"name": "21847", "shape": [32], "dtype": "float32"}, {"name": "PartitionedCall/model_3/tf.concat_1/concat/axis", "shape": [], "dtype": "int32"}, {"name": "21853", "shape": [1, 1, 128, 64], "dtype": "float32"}, {"name": "21855", "shape": [64], "dtype": "float32"}, {"name": "21857", "shape": [4, 2], "dtype": "int32"}, {"name": "21859", "shape": [3, 3, 64, 128], "dtype": "float32"}, {"name": "21861", "shape": [128], "dtype": "float32"}, {"name": "21863", "shape": [1, 1, 128, 128], "dtype": "float32"}, {"name": "21865", "shape": [128], "dtype": "float32"}, {"name": "21867", "shape": [4], "dtype": "int32"}, {"name": "21869", "shape": [4], "dtype": "int32"}, {"name": "PartitionedCall/model_3/tf.strided_slice_5/ones_like", "shape": [4], "dtype": "int32"}, {"name": "21871", "shape": [3, 3, 64, 64], "dtype": "float32"}, {"name": "21873", "shape": [64], "dtype": "float32"}, {"name": "21875", "shape": [3, 3, 64, 64], "dtype": "float32"}, {"name": "21877", "shape": [64], "dtype": "float32"}, {"name": "21879", "shape": [3, 3, 64, 64], "dtype": "float32"}, {"name": "21881", "shape": [64], "dtype": "float32"}, {"name": "21883", "shape": [3, 3, 64, 64], "dtype": "float32"}, {"name": "21885", "shape": [64], "dtype": "float32"}, {"name": "PartitionedCall/model_3/tf.concat_2/concat/axis", "shape": [], "dtype": "int32"}, {"name": "21891", "shape": [1, 1, 256, 128], "dtype": "float32"}, {"name": "21893", "shape": [128], "dtype": "float32"}, {"name": "21895", "shape": [4, 2], "dtype": "int32"}, {"name": "21897", "shape": [3, 3, 128, 256], "dtype": "float32"}, {"name": "21899", "shape": [256], "dtype": "float32"}, {"name": "21901", "shape": [1, 1, 256, 256], "dtype": "float32"}, {"name": "21903", "shape": [256], "dtype": "float32"}, {"name": "21905", "shape": [4], "dtype": "int32"}, {"name": "21907", "shape": [4], "dtype": "int32"}, {"name": "PartitionedCall/model_3/tf.strided_slice_7/ones_like", "shape": [4], "dtype": "int32"}, {"name": "21909", "shape": [3, 3, 128, 128], "dtype": "float32"}, {"name": "21911", "shape": [128], "dtype": "float32"}, {"name": "21913", "shape": [3, 3, 128, 128], "dtype": "float32"}, {"name": "21915", "shape": [128], "dtype": "float32"}, {"name": "PartitionedCall/model_3/tf.concat_3/concat/axis", "shape": [], "dtype": "int32"}, {"name": "21921", "shape": [1, 1, 384, 256], "dtype": "float32"}, {"name": "21923", "shape": [256], "dtype": "float32"}, {"name": "21925", "shape": [1, 1, 256, 128], "dtype": "float32"}, {"name": "21927", "shape": [128], "dtype": "float32"}, {"name": "PartitionedCall/model_3/tf.concat_4/concat/axis", "shape": [], "dtype": "int32"}, {"name": "21929", "shape": [1, 1, 512, 256], "dtype": "float32"}, {"name": "21931", "shape": [256], "dtype": "float32"}, {"name": "PartitionedCall/model_3/tf.concat_589/concat/axis", "shape": [], "dtype": "int32"}, {"name": "22017", "shape": [1, 1, 384, 256], "dtype": "float32"}, {"name": "22019", "shape": [256], "dtype": "float32"}, {"name": "22021", "shape": [4], "dtype": "int32"}, {"name": "22023", "shape": [4], "dtype": "int32"}, {"name": "PartitionedCall/model_3/tf.strided_slice_15/ones_like", "shape": [4], "dtype": "int32"}, {"name": "22025", "shape": [3, 3, 128, 128], "dtype": "float32"}, {"name": "22027", "shape": [128], "dtype": "float32"}, {"name": "22029", "shape": [3, 3, 128, 128], "dtype": "float32"}, {"name": "22031", "shape": [128], "dtype": "float32"}, {"name": "PartitionedCall/model_3/tf.concat_591/concat/axis", "shape": [], "dtype": "int32"}, {"name": "22037", "shape": [1, 1, 384, 256], "dtype": "float32"}, {"name": "22039", "shape": [256], "dtype": "float32"}, {"name": "22047", "shape": [3, 3, 256, 80], "dtype": "float32"}, {"name": "22057", "shape": [80], "dtype": "float32"}, {"name": "22071", "shape": [3, 3, 80, 80], "dtype": "float32"}, {"name": "22081", "shape": [80], "dtype": "float32"}, {"name": "22093", "shape": [1, 1, 80, 80], "dtype": "float32"}, {"name": "22107", "shape": [80], "dtype": "float32"}, {"name": "PartitionedCall/model_3/tf.concat_592/concat/axis", "shape": [], "dtype": "int32"}, {"name": "PartitionedCall/model_3/tf.compat.v1.transpose_1158/transpose/perm", "shape": [4], "dtype": "int32"}, {"name": "PartitionedCall/model_3/tf.reshape_2/Reshape/shape", "shape": [3], "dtype": "int32"}, {"name": "PartitionedCall/model_3/tf.concat_593/concat/axis", "shape": [], "dtype": "int32"}, {"name": "22133", "shape": [3], "dtype": "int32"}, {"name": "22135", "shape": [3], "dtype": "int32"}, {"name": "PartitionedCall/model_3/tf.strided_slice_17/StridedSlice/strides", "shape": [3], "dtype": "int32"}, {"name": "PartitionedCall/model_3/output0/concat/axis", "shape": [], "dtype": "int32"}]}]}
